models/best_model_right.pth (torch, 138092 bytes, 8 tensors)

model.0.weight f4 [128, 1]
000000 f1 ed 0e 3e 9d 6b cc be e2 39 ca 3d 71 7a 48 be
       0.13957955 -0.39925852 0.098743215 -0.19577958
000010 1b 18 4d bc 99 0b 85 3d da 4a e3 3e e5 9d 2f 3c
       -0.012517954 0.06496353 0.44393045 0.010718797
000020 fa 82 1b 3e 5a da 0e be 50 f7 1e 3e a4 d1 10 3f
       0.15186682 -0.13950482 0.1552403 0.56569886
000030 d0 16 06 bf a7 5f a4 be 42 7a 90 3e f1 53 56 be
       -0.5237856 -0.32104227 0.28218275 -0.20930459
000040 dc e8 a1 be 9f 10 e7 3e 7d 21 ba 3e 22 9a ae bc
       -0.3162297 0.45129868 0.36353675 -0.02131373
000050 44 cb 02 3d c0 0e a2 be f6 e4 09 3f c1 9d 04 3f
       0.03193213 -0.31651878 0.5386499 0.51803213
000060 cc 84 20 3c 98 54 20 bf 49 bc f2 3e 8f 43 a2 bd
       0.009797286 -0.6262908 0.47409275 -0.07923042
000070 e8 50 af 3c 36 1a f3 be b6 07 89 be a9 2b ef be
       0.021400884 -0.47480935 -0.26763695 -0.46712998
000080 06 f0 1c be 7d e2 25 bc db 71 36 be 0a 2e 57 be
       -0.15325937 -0.0101248 -0.1781687 -0.21013656
000090 4c e2 eb be 1c f9 c5 3e 9e fb be 3e df 10 02 bf
       -0.46071088 0.38666618 0.37301344 -0.50806993
0000a0 1e 91 aa be 4c 5a af 3e 17 55 fc be ed ca 35 3f
       -0.3331384 0.3424858 -0.49283668 0.71012765
0000b0 57 9a 3e 3f 5f 79 f4 be 0e 6c 01 3f 26 ba 79 be
       0.74454254 -0.4774885 0.50555503 -0.24387416
0000c0 c2 0a bd be cb f0 8c 3e 6e 93 07 be c8 6d b2 3e
       -0.3692227 0.2752746 -0.13239834 0.3484938
0000d0 16 c0 bb 3e c1 78 38 3f 08 e6 38 3f cc 41 14 3e
       0.36669987 0.72059256 0.72226 0.14478225
0000e0 52 e2 0f 3f 53 a6 fd 3e 4c 89 b5 3e 38 3a 98 be
       0.5620471 0.49540958 0.35456312 -0.29731917
0000f0 c7 81 77 bd de c3 76 3c c1 b2 c5 3e b2 9f 18 bf
       -0.0604265 0.015061347 0.3861294 -0.59618676
000100 32 2d 88 3e c6 31 21 be eb bd a9 3e 39 ad 6d 3a
       0.2659698 -0.15741643 0.33152708 0.00090666447
000110 01 6e 91 bd 97 28 a9 3e c6 fa 39 3f e5 1a 21 bf
       -0.0710106 0.3303878 0.72648275 -0.6293166
000120 4b 8b 64 bc d0 4a f0 bd 09 f9 f6 be 47 0b ab 3e
       -0.013949226 -0.11733019 -0.48236874 0.3340704
000130 7d ab f6 be 90 84 61 bc 64 b4 96 be cb 53 26 be
       -0.4817771 -0.0137645155 -0.29434502 -0.16242902
000140 61 d7 8b be 9d de 94 3e f5 60 9b be 96 45 43 3f
       -0.2731276 0.2907609 -0.3034741 0.76278055
000150 ec ec 1f 3f f4 8d ad 3e 1a 43 92 bd 59 5e 15 bf
       0.6247089 0.33897364 -0.07141705 -0.5834709
000160 d8 18 26 bf 8f 85 86 be 41 f1 02 3f 73 9b 20 bf
       -0.6488166 -0.26273772 0.51149374 -0.62737197
000170 31 16 2d bd 33 8d f3 be 27 f5 91 3e ea b3 7a bd
       -0.04225749 -0.47568664 0.2850735 -0.061206736
000180 e9 91 c3 3e 86 54 f7 bd 67 b0 0a bf b4 be 92 be
       0.38197258 -0.120766684 -0.5417542 -0.2866112
000190 4a 8d 2b be 4d 73 ef 3e 8d c7 7f 3d 86 41 ae 3e
       -0.16753116 0.46767655 0.062446166 0.34034365
0001a0 d3 1f ff be 8a 65 c9 3b 08 39 af 3e ac 96 82 be
       -0.49828967 0.0061461376 0.342232 -0.2550558
0001b0 27 ad 19 3f 3b 1c 66 be 47 80 e1 be 24 43 09 bf
       0.60029835 -0.22471707 -0.4404318 -0.53618073
0001c0 8e 0e a5 be 34 d7 0f 3f 84 98 70 be 54 ad 3e be
       -0.32237667 0.5618775 -0.2349568 -0.18620807
0001d0 45 42 b0 bb f0 bd 43 3f 53 fa bf be 47 e4 05 bf
       -0.0053789937 0.76461697 -0.3749567 -0.5230145
0001e0 1e f2 9c 3d fd 93 05 bf 34 63 f9 be f5 8c 61 bf
       0.07663368 -0.5217894 -0.48708498 -0.8810571
0001f0 63 f6 05 3e 62 0f 08 bd 5e 70 b1 bd d6 67 7b bb
       0.1308227 -0.033217795 -0.086640105 -0.0038361452

model.0.bias f4 [128]
000000 cc 9d 91 3c 64 26 68 3e 2b 7d dc be af b8 c0 bd
       0.017775439 0.22670895 -0.43064246 -0.094102256
000010 4c 06 00 bb e4 ae b6 be ab 20 a5 be 09 be 90 be
       -0.0019535003 -0.35680306 -0.32251486 -0.28269985
000020 d4 09 a5 3d bf 2f bf be 78 a6 e6 be e9 3d 0f ba
       0.08058515 -0.37341115 -0.4504888 -0.00054642424
000030 49 c1 c4 be b5 52 97 3e ce 36 b3 be 17 d8 52 3e
       -0.38428715 0.29555288 -0.3500275 0.20590244
000040 cd 33 a0 3e 0e de a7 be 43 45 d6 ba 65 c2 64 bd
       0.3128952 -0.32786602 -0.0016347546 -0.05584945
000050 af 68 c9 be 66 57 37 3e 9d 67 be be 74 f3 06 bf
       -0.3933768 0.17904434 -0.37188426 -0.5271523
000060 69 bc 88 bb 66 cb f6 3e f9 22 6f bd e7 8a 5c 3e
       -0.004172851 0.48202056 -0.058382962 0.21537362
000070 bc 49 28 be e6 b2 bb 3e 8f 3b 87 3e 25 98 b8 3e
       -0.16434377 0.36659926 0.26412627 0.36053577
000080 7c b5 cc be 9d 94 26 ba b6 de af be 1d 67 39 bd
       -0.39982212 -0.00063545426 -0.34349602 -0.045264352
000090 91 ad 88 3e e4 98 d1 be ba bf 61 be d4 a4 ef 3e
       0.2669492 -0.4093696 -0.22045794 0.4680544
0000a0 e3 2b 65 be d1 b6 69 3e fc 0a 96 3e d2 0a 67 bd
       -0.22380023 0.22823645 0.29305255 -0.056406803
0000b0 4c 02 80 bd c1 14 bc 3e ed 08 04 bf e9 58 41 3e
       -0.06250438 0.36734584 -0.5157612 0.18881573
0000c0 16 a2 ee bc 6f 64 45 3e f3 56 03 3e 5e eb 02 bf
       -0.029130023 0.19276594 0.12826137 -0.5114039
0000d0 78 cf e5 be 39 2c 94 3d 7b e1 bf 3c 6a d9 d9 3d
       -0.4488485 0.07234997 0.023422947 0.106371716
0000e0 d3 2c d1 be 50 b1 09 bf cc e0 4c 3e 07 e6 8b 3e
       -0.4085451 -0.5378618 0.20007628 0.27323934
0000f0 36 59 10 3d 66 63 bc be c8 ee 5f 3e 1e cd b5 3e
       0.03524133 -0.36794585 0.21868432 0.35508054
000100 b9 3f c6 be 51 fb e3 be c4 7c c7 be d4 9c 4c 3c
       -0.38720492 -0.44527677 -0.38962376 0.012488563
000110 11 0e 27 3d 01 3c 92 3d 81 ce 66 bd 3a ba 71 3e
       0.0407849 0.07140351 -0.05634928 0.23606196
000120 6e 70 a9 ba 1b 45 88 3d 27 a6 84 bd 82 f0 87 be
       -0.0012927183 0.06653806 -0.064770035 -0.2655068
000130 82 7d b4 be b3 88 ef be 98 e6 87 be 90 80 22 3e
       -0.35252005 -0.4678398 -0.26543117 0.15869355
000140 78 1b 8a 3e c4 91 b4 be 72 8c 2a 3e 25 3d bf bd
       0.26974082 -0.3526746 0.16655138 -0.09337834
000150 3b 22 bd be 0f 6a 57 3d 41 0a 9e 3d 26 df e5 3e
       -0.36940178 0.05259138 0.077167995 0.4489681
000160 64 95 f1 3e 2d f6 25 be fe d4 84 ba 2b 38 bf 3e
       0.47184289 -0.1620719 -0.0010134277 0.3734754
000170 8e 35 58 3c d0 7b bb 3e 8c 7d dc be 60 c4 f5 3c
       0.013196362 0.366179 -0.43064535 0.030000865
000180 fa 40 9a be 28 95 02 bf e1 95 ff 3e 53 81 bb bd
       -0.30127698 -0.51008844 0.49919036 -0.09155526
000190 c0 23 89 be 81 f9 ad be 3c 63 7b be f1 cb a8 bd
       -0.26785088 -0.3397942 -0.24549574 -0.08242024
0001a0 1f b2 2f be 3b 92 8a bd bd 97 c9 be 8b 40 83 3e
       -0.17157792 -0.067661725 -0.3937358 0.2563518
0001b0 aa b1 41 3d 96 bd ce be 7f 7d e4 bc d6 ea d3 3e
       0.047288574 -0.40379018 -0.027891872 0.41390103
0001c0 a6 a3 3a 3e 15 a3 c6 be ee 52 da bd 8c 39 12 3e
       0.1822649 -0.38796297 -0.10660349 0.14279765
0001d0 27 cc 2c bb 82 78 65 3d f2 9f c7 be d1 47 05 bf
       -0.0026366801 0.05602313 -0.38989216 -0.5206271
0001e0 69 21 3d be a3 b7 ff bd 04 f3 61 bd 86 42 a8 3e
       -0.18469776 -0.12486198 -0.0551634 0.32863253
0001f0 26 f6 ab be fc e5 07 3e c5 77 c3 be 10 55 e5 3d
       -0.33586234 0.13271326 -0.38177314 0.11197865

model.2.weight f4 [128, 128]
000000 03 7b 29 3d 68 1c a3 bc f5 5e e5 bc 0f e7 d0 bc
       0.04137708 -0.019911006 -0.02799938 -0.025500802
000010 14 b7 2d 3d 5d 2a 26 3d 2d 33 09 3c 7b 3a f3 bc
       0.042410925 0.040567745 0.008374018 -0.029690972
000020 55 2e 18 bd 31 8a a7 3b d2 11 8a 3c 44 fa 3f bd
       -0.03715356 0.0051129092 0.0168542 -0.04686953
000030 65 b6 eb 3c 0c dd 0a 3c 7c 4f 26 3d ab 7f 3a 3b
       0.028773496 0.008475553 0.040603146 0.0028457444
000040 a4 58 e5 bc 9b 0e 7f 3c 4e 34 0f 3c be 35 42 bd
       -0.027996369 0.015567447 0.008740498 -0.047414534
000050 be 05 0b 3c 75 80 3d 3b 0c 85 24 3c 02 cd db b9
       0.008485256 0.0028915678 0.0100414865 -0.00041923678
000060 df a8 03 bd 01 cb f1 bc db 5b 89 bc 34 40 b5 3c
       -0.03214347 -0.029515745 -0.016767433 0.022125341
000070 74 42 1a bc d4 9b 90 bc 69 26 95 3c 83 df 9a ba
       -0.009415258 -0.01765243 0.018206792 -0.0011815879
000080 5b 79 05 bc 6a 31 8e 3c 32 bb 07 3d a8 37 48 bc
       -0.008146609 0.017357547 0.033137508 -0.012220301
000090 79 2d 99 bc ec 21 12 bc f2 40 41 3d 1e 71 e4 3c
       -0.01869844 -0.00891922 0.047181077 0.02788597
0000a0 45 73 c7 3c ef 01 ff bb 22 dc 42 bd d0 a3 0d 3d
       0.024346957 -0.007782213 -0.047573216 0.034580052
0000b0 ce 35 25 bd 9d 36 a9 3b 5d db 82 3c ea 6d de bc
       -0.040334515 0.005163981 0.015973741 -0.02715202
0000c0 72 1f 04 bb 7b b1 8a bb 15 df 0b 3c 3a d6 c7 bc
       -0.0020160344 -0.004232583 0.008537074 -0.024394143
0000d0 58 c2 37 bd b9 cc b1 bb 5e 5e dd 3b 72 1f 9d ba
       -0.044863075 -0.005426016 0.006755634 -0.0011987521
0000e0 59 3d 15 3d 69 ca b0 3c d1 37 be bc 6a fe 04 3c
       0.03643546 0.021580892 -0.023219975 0.008117298
0000f0 64 07 39 3d 15 2d 09 bd c3 3d a5 3c 67 26 2d 3d
       0.045173064 -0.03349026 0.020171052 0.04227295
000100 ce f0 1c bc 1f 78 f9 bc 1f 6f 1c bd 8b 62 a7 bb
       -0.009578897 -0.030452786 -0.03819191 -0.005108183
000110 bf a9 05 bd d2 b3 b2 bc 83 f2 a1 bc ad ff 2a 3d
       -0.032632586 -0.02181426 -0.019768959 0.041747738
000120 c4 1d ff 3c 8a 76 3e bb 02 7e 3c 3d df 0e ad bc
       0.031142123 -0.0029062354 0.046018608 -0.021125255
000130 29 32 8b bb 35 a7 02 bd 42 44 0a bd d0 6c 0f bd
       -0.004247923 -0.031897742 -0.033756502 -0.03501588
000140 e9 a0 25 bd 54 ef af bc 40 87 32 3c 71 fb 31 bd
       -0.04043666 -0.021476425 0.010896504 -0.043452684
000150 15 48 3c bd 1d e4 33 bd 2b c8 a9 3c c1 52 12 bc
       -0.04596718 -0.043918718 0.02072533 -0.008930863
000160 82 d5 1d bd 7f 32 30 3d 63 4d ae 3c 3a 81 a6 bc
       -0.038533695 0.043016907 0.021277135 -0.020325292
000170 97 40 fd 3c a9 22 08 3c c4 a2 ad 3c f1 ac 12 3c
       0.030914588 0.008309045 0.021195777 0.008952365
000180 72 be cf ba 49 f1 87 3b 94 13 bd bc 10 5f fc bc
       -0.0015849604 0.0041486365 -0.023080625 -0.030807048
000190 df 25 06 bd e8 23 eb 3c 24 a9 a7 bc 10 0d 43 bd
       -0.03275096 0.028703645 -0.020466395 -0.04761988
0001a0 c4 5c 35 b9 57 90 21 bb ce b2 c7 bb 67 17 88 3c
       -0.00017296063 -0.0024652684 -0.006094313 0.016612722
0001b0 d7 66 da 3c fc 0e cd bc 78 82 12 3d 75 d3 02 bc
       0.026660366 -0.02503156 0.035768956 -0.007984986
0001c0 3a 48 12 3d b7 cb 3e bd fb bc 9e bc 50 52 42 3d
       0.035713412 -0.046580996 -0.019377222 0.04744178
0001d0 78 c4 a7 3c 3d 09 2c bd d8 8d c7 bb 49 ff 0c 3d
       0.020479426 -0.042000998 -0.006089907 0.034423146
0001e0 28 f8 ab 3c 74 d9 0e 3d 72 c7 68 bc 8b 25 29 bd
       0.020992354 0.03487535 -0.014207708 -0.04129557
0001f0 47 9d 10 3d a2 f1 16 bd 94 1e 0c bd 29 61 c5 bc
       0.03530624 -0.036851533 -0.03420885 -0.024094181
000200 19 cd 32 3d 66 c1 81 3e af f7 29 bd 5c c1 cb 3c
       0.043652628 0.25342864 -0.041495975 0.024872474
000210 bf 3b 9a 3b b6 1e b4 bc 3b ca e5 be a9 4d 3f 3d
       0.0047068293 -0.0219873 -0.44880852 0.046704922
000220 3b d3 16 3d 25 30 01 3d 68 90 32 3d 8b 6b 13 3d
       0.03682254 0.031540055 0.043594748 0.035991233
000230 88 60 1a bd 97 a1 49 bd 3a 6e e7 3c c0 55 a5 3b
       -0.037689716 -0.04922637 0.028250802 0.0050456226
000240 7f f4 3c 3d ce 44 cd be 54 92 b6 bc 0a e8 c2 3c
       0.046131607 -0.40091556 -0.022286572 0.023792285
000250 82 9a 21 3d b6 4e 35 3e cb eb c5 bd 9b 31 00 3d
       0.03945399 0.17705807 -0.096641146 0.031297307
000260 38 34 4c 3c c6 db 92 bd f0 2d 4f bb bf fa d0 3c
       0.012463622 -0.07170825 -0.0031613074 0.02551019
000270 f7 64 fa 3c 91 60 e2 bd 4e 55 63 bd 3c 36 06 be
       0.030565722 -0.11053575 -0.055501275 -0.13106626
000280 84 a4 d9 3b 75 17 5c bc 96 22 a6 bc 12 26 32 bd
       0.0066419262 -0.013433327 -0.020280164 -0.043493338
000290 7b bd 5a 3e 21 d4 4d bc f3 77 e1 3d 3a 5e c4 bd
       0.21361344 -0.0125627825 0.110092066 -0.09588285
0002a0 0c 0f 9d 3c 0d cf 50 3d d7 9e 3c 3e c5 f6 54 3d
       0.019172214 0.05097871 0.18419968 0.05199315
0002b0 f9 be 90 3c d0 26 d1 bd 4f 74 50 bc 5a c7 0f be
       0.017669188 -0.10212481 -0.012723043 -0.1404089
0002c0 3e 4a e2 bc 2e ab 77 3d 09 b0 c9 bc 26 b4 21 3d
       -0.027623292 0.060465984 -0.024620073 0.039478444
0002d0 1b 84 3e 3c a8 e9 21 3b a1 9c 48 3d 57 a2 66 3d
       0.011628176 0.002470592 0.048977498 0.056307163
0002e0 c2 4b 08 bf c4 82 ed bc f0 3b c8 3b 71 de 55 be
       -0.532406 -0.028993018 0.0061106607 -0.20885636
0002f0 0a 45 d7 bc 95 47 88 bc b9 35 b2 bb 3f dc c3 3d
       -0.026278038 -0.016635695 -0.005438533 0.09563493
000300 4d 0a e7 bc 39 86 f5 3c 2c 79 94 3b 18 b6 1e 3b
       -0.028203154 0.029971229 0.0045310464 0.0024217423
000310 80 dd 99 bc 4b 7c 33 3d 9b e1 8c bc 73 d8 44 bd
       -0.018782377 0.043819707 -0.01719742 -0.048057985
000320 72 fc 8d 3c a2 cf 00 3d e7 74 21 3d 5c ef ff be
       0.01733229 0.031448014 0.039418127 -0.49987304
000330 b1 47 3d 3c 70 ea 0c 3d 7b 89 66 3c 04 fd ab 3b
       0.011552737 0.034403265 0.014070864 0.0052486677
000340 f2 4e c0 bb 6c f5 b0 3c 46 f3 7b 3e 0b ab 74 3a
       -0.005868786 0.021601401 0.2460452 0.0009333349
000350 4f 19 b2 3d 16 98 4a 3d 84 b5 4f 3c 4f b2 cd bd
       0.086962335 0.049461447 0.012677554 -0.10043775
000360 93 75 78 be 1c 01 a4 bc ba ad 21 3d 7d ce 13 3e
       -0.24263601 -0.02002006 0.03947232 0.14434238
000370 7f 86 83 bb b8 78 66 bd c0 e9 16 bd 3b 26 3b 3c
       -0.004013836 -0.05626747 -0.036844015 0.011422689
000380 6b 01 04 bf a5 75 3b bc 03 82 5b be f4 dd 3c 3d
       -0.51564664 -0.011441623 -0.21436314 0.04611011
000390 82 9e 11 3d 51 8d f5 be 6b b5 20 3c 73 84 7c 3b
       0.035551555 -0.47959378 0.009808878 0.0038531094
0003a0 85 ff 38 bd 0a 0b bd bc 07 b6 0b bc a0 0c 8a 3b
       -0.045165557 -0.023076553 -0.008527285 0.004212931
0003b0 9a f6 0a bb 42 3f 39 bd 41 02 b4 bc 66 b9 47 be
       -0.0021204115 -0.045226343 -0.021973731 -0.19504318
0003c0 5e dd 23 3e 75 29 86 be 0a 82 41 bd 8c 4f 43 be
       0.16002414 -0.26203504 -0.047243156 -0.19073313
0003d0 8d 29 fb bc 99 ac 0e 3d 9e f5 08 3d c8 31 a0 3c
       -0.030659461 0.03483257 0.033437364 0.019554988
0003e0 38 38 13 bd 55 44 fb bb 10 d3 94 bc 19 13 05 3e
       -0.035942286 -0.007668058 -0.018167049 0.12995566
0003f0 83 45 2b bd 3a 50 e7 bc f5 c5 03 3d ef 54 54 3d
       -0.04181434 -0.028236497 0.03217121 0.05183881

model.2.bias f4 [128]
000000 18 fc 14 bb 2e d9 ef 3c 36 f8 ff bd 6a b2 c9 3d
       -0.0022733267 0.029278364 -0.12498514 0.09848483
000010 9e db 9b ba 21 18 b2 bd fa 8b 42 bd 8d ef f3 3b
       -0.0011891013 -0.086960085 -0.047496773 0.007444328
000020 aa 44 21 bd 2c 5d 55 be 8d 39 00 3e eb 35 0a bd
       -0.039372124 -0.20836323 0.12521954 -0.033742826
000030 5e 7a f8 3d e5 72 38 be 09 db ea bb 4e 09 4d bd
       0.12132715 -0.18012579 -0.0071672243 -0.0500577
000040 47 df 18 3e 2d 8b 96 bd 48 db 50 3c 4b e8 ad 3d
       0.14928924 -0.073507644 0.012747593 0.08491572
000050 16 28 ca 3b 38 b8 32 3d 6e 18 d8 bc a3 c6 40 bd
       0.0061693294 0.043632716 -0.026378836 -0.047064435
000060 9c 25 48 be 23 4c 72 be fe 6f 61 3d 12 0a 36 3b
       -0.19545597 -0.23661856 0.055038445 0.0027776998
000070 2f fb 83 bc ac 3f 1b bd f3 ce 79 3d 6a 39 36 3e
       -0.016110985 -0.03790252 0.060988378 0.17795339
000080 27 2a 11 3d 51 2d 66 be aa 6d 01 bc b3 f5 84 be
       0.03544059 -0.22478224 -0.007899681 -0.25968704
000090 58 d4 c5 bb 09 3d 07 bd c6 4b 73 3c 78 3a 49 bd
       -0.0060372762 -0.033017192 0.014849609 -0.049128026
0000a0 fd 27 e0 3d a0 a3 33 3e d2 d3 02 3d a9 d3 81 bd
       0.10945127 0.17542887 0.03194029 -0.06339199
0000b0 0f 9e e0 bd 53 32 26 3c cb f2 49 3d 02 bc 37 bd
       -0.10967647 0.010143834 0.04930381 -0.044857033
0000c0 b1 fe 31 bd dd 38 7c be 62 20 2f bd 14 68 8f bd
       -0.043455783 -0.24631067 -0.042755492 -0.07002273
0000d0 f0 31 05 bd 92 c4 37 3c d5 8e 12 bd e5 cb 02 bd
       -0.032518327 0.0112163 -0.035780746 -0.03193273
0000e0 52 35 7d be d9 9d 1c bd d3 94 7c bd 27 ba ac 3b
       -0.24727371 -0.038236473 -0.061665367 0.0052712145
0000f0 e1 88 22 be ba 1e 33 bd bb 22 39 be de 06 9c 3d
       -0.15872528 -0.043730475 -0.18079655 0.07618497
000100 ae b2 cd 3d 37 fd ce bb 57 97 6a be 14 b9 d7 3d
       0.10043846 -0.0063168067 -0.22909294 0.10533348
000110 50 64 02 be 89 c2 1e bd 05 ed 89 3b a3 38 b8 bd
       -0.12733579 -0.038759742 0.004209163 -0.089951776
000120 0f ce 19 3d a1 7a 3d bd d6 83 a3 bb 5d 20 da bd
       0.03755003 -0.046259526 -0.0049900813 -0.10650704
000130 ab 14 c0 bc 07 5f 92 bc 11 d9 d0 3d 03 72 7c bc
       -0.023447355 -0.017867578 0.10197652 -0.015408042
000140 d7 a5 87 be 12 04 58 bd 1e 6e ba bc 79 b0 af bc
       -0.26493713 -0.052738257 -0.022757586 -0.021446453
000150 87 af 28 bc 35 de 20 bd dd 69 7b 3d a7 73 ad bb
       -0.010295755 -0.039274413 0.061380256 -0.005293328
000160 50 f5 8d be f7 df e1 bd ed b8 0a bc f3 8c 42 bd
       -0.2772622 -0.11029046 -0.008466941 -0.0474977
000170 1d 5a f6 39 1e 6e 0e bd 6b 83 75 bc de c7 da 3c
       0.00046987916 -0.034772985 -0.014984946 0.026706632
000180 eb 84 21 bd 8f 27 fb 3d f0 31 45 3e cb ef 2a 3d
       -0.0394334 0.122634046 0.19257331 0.04173259
000190 92 ed a4 bc 7b 00 35 bd 43 5f 9c 3d 24 59 a3 bb
       -0.020132814 -0.04418991 0.07635357 -0.0049849916
0001a0 35 df 05 bd e6 2f 1e bd ad 2b c3 bc 6c e0 e3 bc
       -0.03268357 -0.0386199 -0.023824537 -0.027816974
0001b0 94 4e 7b bc 26 3f 97 3c e0 aa 7e 3c 30 6c 0d bc
       -0.015338559 0.018462729 0.015543669 -0.008631751
0001c0 dc 0e 68 bd 71 3e 57 be 43 86 fc bb e5 56 2b 3b
       -0.056654796 -0.21019913 -0.007706435 0.0026144322
0001d0 c3 59 73 bc a2 64 0a 3c 50 34 94 3a 7d 9f 49 bc
       -0.014852944 0.008446844 0.0011307094 -0.012306091
0001e0 a4 d7 c2 bc e6 28 4a 3c f6 18 c9 3c 12 38 5a be
       -0.023784466 0.0123388525 0.024548035 -0.21310452
0001f0 8e 03 30 bd 68 84 5f bc fa ef e2 3d 47 6f 93 bd
       -0.04297214 -0.013642408 0.11080928 -0.07198959

model.4.weight f4 [128, 128]
000000 c7 03 11 3b a7 a9 b4 bc 8e d6 0c bd f7 7b 92 bc
       0.0022127496 -0.022053553 -0.034384303 -0.017881377
000010 ab da 27 bd d2 7c 38 bc 4d 55 74 3c 69 0c 3a bc
       -0.040980022 -0.011260228 0.014912915 -0.011355498
000020 c3 47 11 bd 2a cc 36 3d dc 5f 2d bd 14 b4 02 bd
       -0.035468828 0.0446283 -0.042327747 -0.031910017
000030 42 f6 63 3c 4b bd 72 3c 3f fb 2e 3d 8d 67 6c 3c
       0.013913693 0.014815639 0.042720076 0.014428985
000040 62 96 9f 3b 32 fd 74 3b 77 33 5e bb 5c a5 53 3d
       0.004870222 0.0037382361 -0.0033905187 0.05167137
000050 3a f4 45 bd 07 c9 c9 3c ff 4b 0c 3d f1 dc f2 3c
       -0.048328616 0.02463199 0.034252163 0.029646369
000060 89 6a 9d bb 54 e8 3c bd ca 58 1f bd 3b 27 6a bd
       -0.0048039597 -0.046120003 -0.038903035 -0.05716632
000070 0b 88 2a bd 30 b1 ce bc f7 18 56 bd 8b 71 94 bc
       -0.041633647 -0.025230974 -0.052269902 -0.018120548
000080 7c 82 76 bd 18 c3 7b bd 30 2d 9d 3c 08 b7 60 bc
       -0.060183033 -0.061465353 0.019186586 -0.013715513
000090 71 19 a0 3c 5e ba a1 3c 20 4a bf bc 26 0d 1f bd
       0.019543381 0.019742187 -0.023350775 -0.0388309
0000a0 de f4 53 bd 91 8e 46 bd a3 b4 36 3c c3 e1 2d bd
       -0.051747195 -0.048475806 0.011151466 -0.04245163
0000b0 72 ad 93 bc e2 29 66 bc bd d3 30 bc 79 e9 74 bc
       -0.018027041 -0.014048072 -0.01079267 -0.014948242
0000c0 56 8c 4f bd 84 0c 88 bd d2 09 04 bd f4 9e e2 bc
       -0.050670944 -0.06643012 -0.032235928 -0.027663685
0000d0 64 3c b2 bc b7 01 cd 3b 5b da 1a 3d 94 6e 8e 3c
       -0.021757312 0.006256308 0.037805896 0.017386712
0000e0 02 b4 19 bd 44 30 8d bd 9a 62 50 bc a5 e1 1b 3d
       -0.037525184 -0.068939716 -0.012718821 0.03805699
0000f0 fe 6d f5 3c bd b5 12 3c 8c 78 08 bd 4f 75 ba 3c
       0.029959675 0.008954463 -0.033318087 0.022761015
000100 6c ff 72 bd 63 2d 0f bd d6 06 1c 3d 47 74 4c 3d
       -0.05932562 -0.034955394 0.038092457 0.04991558
000110 04 64 9d 3c 5a 5c 83 bd 3f 0e 5d bc de 4e 0b bd
       0.01921273 -0.06414099 -0.013492166 -0.03401076
000120 6d d5 42 3d 53 e8 16 3c 38 f1 0a 3c 90 1a 04 bd
       0.04756682 0.009210664 0.008480363 -0.032251894
000130 a5 d2 a0 bd d7 5e 0a 3c 39 50 2b bd f3 96 32 bd
       -0.07852677 0.008445463 -0.041824553 -0.043600988
000140 79 ea c4 3c 07 ad 31 3c 96 18 2a 3d 42 33 24 3d
       0.024037587 0.010844476 0.041527353 0.040087946
000150 00 48 1b 3d b2 b5 54 3c 74 32 45 3c d8 91 1d bd
       0.03791046 0.012982773 0.012035955 -0.038469166
000160 93 09 15 3c 81 1b 80 3a 76 b4 5f bd bc 85 9b 3c
       0.009096521 0.0009773822 -0.05461546 0.018984668
000170 cc 0b 30 bd df b0 10 3d 20 7f 9b 3c d6 a9 42 3d
       -0.04298 0.035324927 0.018981516 0.04752525
000180 9e 1b 44 bd 02 da 08 bd 88 54 9f bd f8 6a ca 3b
       -0.0478779 -0.033411033 -0.07779795 0.0061773024
000190 f8 02 2e bd 2b ad 83 bc 56 5d 9e bc ca df 11 bd
       -0.0424833 -0.016073784 -0.019331615 -0.035613813
0001a0 dc 85 f2 bc 64 78 2f bd 98 9c 3c bd 84 85 a4 bd
       -0.029604845 -0.042839423 -0.046047777 -0.080332786
0001b0 56 7c 86 3b f6 3c 13 bd 5b ed 89 bc 77 c7 d3 3b
       0.0041041775 -0.03594681 -0.016836813 0.006462987
0001c0 54 bb e5 3c c8 8e b4 bc 19 af 92 bc 8d 5f 40 bd
       0.028043427 -0.02204074 -0.017905759 -0.046966124
0001d0 23 c9 33 bd da 99 20 3d cc a2 21 bc 7d 1c 76 bb
       -0.04389299 0.039209224 -0.009865474 -0.0037553601
0001e0 f2 73 3f bd f8 6c d9 bc 4a 5a b1 bc 46 42 79 bd
       -0.046741433 -0.026541218 -0.021649498 -0.06085422
0001f0 a6 d6 c3 bb 34 1f c2 ba dd f5 86 bd 99 d6 37 bc
       -0.005976516 -0.0014810325 -0.065898634 -0.011220598
000200 0c c1 86 3c 9b 02 ff bc 70 9d 23 bc 9f 6b 36 be
       0.016449474 -0.031129172 -0.0099862665 -0.17814492
000210 b3 c8 e4 bd 88 4b 36 3c 82 be 42 3d 77 78 97 bc
       -0.11171093 0.0111264065 0.047544964 -0.01849006
000220 1e 29 04 3d 8f dd 08 bd 67 21 b3 3d fa 61 2a 3d
       0.032265775 -0.03341442 0.08746605 0.041597344
000230 50 11 5a be fd c2 ae bc 5f 29 0d ba 1f 31 aa 3c
       -0.21295667 -0.021333212 -0.0005384888 0.020775376
000240 55 a7 21 bd c6 31 9e 3d 1d 2e 0f bd a2 c7 80 bd
       -0.03946622 0.07724337 -0.034956086 -0.06288077
000250 8f da 9c 3c cd 3f 3b bd 0e 33 3f 3c a2 2d 40 3d
       0.019147186 -0.045715142 0.011669887 0.04691852
000260 17 6e 91 bc c8 03 da 3b 1b 1d 00 bd 15 27 cb bc
       -0.01775269 0.006653283 -0.031277757 -0.02479891
000270 40 b0 a1 bd 4b bf 0d bd bc 44 69 bd 84 1e 2a bd
       -0.07894945 -0.03460626 -0.056950316 -0.04153301
000280 fa 47 c9 bb a1 50 4a 3d 66 91 1a 3d 29 e6 87 3c
       -0.0061426135 0.0493933 0.03773632 0.016589241
000290 35 eb 89 bd 06 71 eb 3b 50 17 a2 3b 26 0f 28 3d
       -0.06734315 0.0071851043 0.0049466267 0.04103007
0002a0 ff ff a6 bd 79 56 3d bd 88 21 3f 3c 85 e8 57 bc
       -0.08154296 -0.046225045 0.011665709 -0.013177996
0002b0 b0 0b f6 bb c9 f8 17 3b eb d8 b5 3b 75 9d 9f bb
       -0.0075087175 0.002318906 0.0055495403 -0.0048710653
0002c0 18 52 f7 3b 7a 65 5e 3c 71 a3 0b bd e7 55 8d bc
       0.007547628 0.013573999 -0.034091417 -0.017252875
0002d0 1a 22 2e bd d9 e1 0a bc 4b 11 81 3c 18 fd 93 3c
       -0.04251299 -0.008476698 0.015755316 0.01806502
0002e0 75 09 84 bb ed 8f a0 bc 1d b8 6a bc 47 ac 85 3b
       -0.0040294477 -0.01959988 -0.014326123 0.004079375
0002f0 dc d0 78 3c a8 31 c5 bd 9f ca 9f bd 6c 76 25 bd
       0.015186515 -0.09628612 -0.07802319 -0.04039614
000300 ce 59 7f bd 7f f4 6c bc a9 40 cd 3c f2 8d f6 bd
       -0.062341504 -0.014462589 0.025055246 -0.12038793
000310 cb 71 69 3c cb 97 f1 3b ae 82 7b bd 28 03 a1 bc
       0.014248322 0.0073728315 -0.061403923 -0.019654825
000320 5d c9 17 bd 5e a4 ba bc 53 72 27 bd ba 85 21 bd
       -0.03705727 -0.022783455 -0.040880512 -0.039434172
000330 ba b9 62 3c 38 e8 eb 3c 5d 2e fa bd 73 68 d9 3b
       0.013838226 0.028797254 -0.12215874 0.006634766
000340 79 75 88 3c 7d 5e 44 3d b9 32 97 3c 1e 76 d2 bd
       0.016657578 0.047941674 0.018456804 -0.10276435
000350 28 68 7d bc 29 77 34 bd 63 73 75 bd 39 60 2c bd
       -0.015466727 -0.044058952 -0.059924494 -0.042083953
000360 a0 6c 92 bd 91 63 c1 bc d0 89 07 bd ab 12 3c 3d
       -0.07149625 -0.023607047 -0.033090413 0.04591624
000370 d4 00 e0 bc e2 58 35 bd 50 0d 3d b9 4f 44 17 bd
       -0.027344145 -0.04427422 -0.00018029404 -0.03693038
000380 46 a9 b5 bc dd 65 1f bd a9 83 9d bd cf a0 9c bd
       -0.022175442 -0.038915504 -0.07691128 -0.07647859
000390 e3 f7 3f bd fe 2e 21 3d 75 bd e6 bd 2f 73 40 3d
       -0.046867263 0.039351456 -0.11266605 0.046984848
0003a0 97 af a4 3d 19 d1 0e 3d ea 12 70 bc 03 34 c4 bc
       0.080413036 0.03486738 -0.014652947 -0.023950582
0003b0 a7 f7 42 bd 4f a4 97 bd 00 06 8d 3b af 3f 1a bd
       -0.04759946 -0.07404386 0.004303694 -0.03765839
0003c0 7d fa 92 ba 49 0c 40 bd 3c ae 67 bd 5b 1a 25 bd
       -0.0011213567 -0.046886716 -0.056562647 -0.040308338
0003d0 c6 f1 38 3d 10 e2 d2 3c 67 a1 71 3d 4b 11 8b bc
       0.045152448 0.02574256 0.058991816 -0.01697602
0003e0 3c 2c 98 3c d4 1e d5 bb ef 4d c6 3c 27 a3 fe 3b
       0.01857578 -0.006503919 0.024207084 0.007770914
0003f0 2c 42 d7 3b 3f 79 de bc bf 11 0a be 59 ab 0d bd
       0.0065691676 -0.027157424 -0.13483332 -0.034587238

model.4.bias f4 [128]
000000 75 3d 59 bd 05 ba 02 bd 1a 90 f8 3d 3f b5 f0 bd
       -0.053037126 -0.031915683 0.1213686 -0.1175332
000010 24 70 54 bd 9c 33 6d bc 82 01 4d bd 38 ba e3 3b
       -0.051864758 -0.014477637 -0.050050266 0.0069496892
000020 07 fd 10 bd 69 cc f5 3d 15 d4 01 3c 93 77 96 3d
       -0.035397556 0.12001879 0.007924099 0.07347026
000030 b7 b6 90 be f6 48 66 bc be a5 0f bc a2 a9 6b bd
       -0.282644 -0.014055481 -0.008767543 -0.05753482
000040 27 3f 93 3d e8 4b b8 bc ea 9f 8c 38 1d 3d ae 3d
       0.0718978 -0.022497132 6.7055065e-05 0.0850775
000050 02 e7 51 bb 13 10 a3 3e 90 65 5c be 20 fb 16 bd
       -0.003202856 0.318482 -0.21523118 -0.036860585
000060 7f c2 ad 3d 28 04 63 3c 44 dd 6e be 34 a1 83 bc
       0.08484363 0.013855971 -0.23326594 -0.016068079
000070 d3 7a 54 3e 5a cb 86 bd 9a 4f 9d 3d cd 5c 4c bc
       0.20749979 -0.06581755 0.076811984 -0.012473297
000080 6c 30 92 bd c6 af 59 bd 11 84 0f 3e d1 de 97 3e
       -0.07138142 -0.053146146 0.14015223 0.29662183
000090 7e 63 6e bd 8f aa 6d bc 62 4c 8a bd e9 62 65 3b
       -0.058200352 -0.014505996 -0.0675285 0.0035001582
0000a0 ec b3 2f bd c5 ca 27 bd 10 d9 aa bd 2b f6 d1 3d
       -0.042896196 -0.04096486 -0.08342183 0.10252031
0000b0 3c d5 ba 3c 87 2f 86 bc ff 0c 6c be 1c 12 22 bd
       0.022806756 -0.016380085 -0.23051833 -0.03956805
0000c0 86 cd 78 3e d8 2d 5b bd 4d 02 f6 bb ef 76 3b bd
       0.24297151 -0.053510517 -0.0075075985 -0.04576772
0000d0 78 f1 d7 bd 7f 46 fa bc 8e 60 42 be 8b 51 30 bd
       -0.105441034 -0.030551193 -0.18982145 -0.043046515
0000e0 86 b3 13 bc 18 89 52 bd 16 12 f0 bc 97 46 70 bd
       -0.00901497 -0.051400274 -0.029305499 -0.05866107
0000f0 38 a8 5e 3e 1f 3d 65 ba 54 de f9 bc c8 e9 fa 3b
       0.21743858 -0.00087447645 -0.030501522 0.0076572634
000100 fc 07 84 3d 58 2a 63 be f1 da 46 be b1 21 53 3c
       0.064468354 -0.22184122 -0.19419457 0.012886451
000110 6a 50 b2 3d da 11 2f bc 84 d6 9c bd d0 00 16 bd
       0.08706744 -0.0106854085 -0.07658103 -0.03662187
000120 9b f4 33 be 62 d7 d6 3d fc 9c 3c bd 87 a4 f4 3d
       -0.17573778 0.104903 -0.04604815 0.119454436
000130 3e 30 a0 3d 53 8b 41 3b 29 ad 1d 3c d5 2b 86 3d
       0.078217015 0.0029532507 0.009623804 0.06551329
000140 a0 90 e4 bc 95 38 91 bd 17 de 3c bd 23 f8 5f bd
       -0.027900994 -0.0709087 -0.04611024 -0.05468
000150 31 27 aa bc cc 6a 4e bd 06 78 2a bd bd 7a fd bd
       -0.020770641 -0.05039482 -0.04161837 -0.12376926
000160 93 d4 95 37 57 54 43 bd 18 00 99 ba 75 a3 47 3d
       1.7861172e-05 -0.047687855 -0.0011673002 0.04873987
000170 e0 a3 81 3d 64 60 68 bd 66 98 0b be 76 cf 5f 3d
       0.06330085 -0.05673255 -0.13632354 0.05464121
000180 5f 74 ec 3d f1 58 83 bc 88 54 b1 3d d1 ac af bc
       0.115456335 -0.016033622 0.08658701 -0.02144471
000190 2b 95 69 3c 5f 95 50 bb 41 c7 99 bd b2 87 38 3d
       0.014256756 -0.0031827313 -0.07508708 0.045051284
0001a0 16 a4 e7 bc db e2 1c 3e b1 31 20 be 24 9a 02 bd
       -0.028276484 0.15320913 -0.15643956 -0.03188528
0001b0 78 40 02 bd d4 13 56 bd de 68 b5 3d 02 b5 50 be
       -0.031799763 -0.052265003 0.088578925 -0.20381549
0001c0 76 4f 26 3e 21 67 a5 bc b6 7d c4 3d 4f 2a 3d bc
       0.1624125 -0.020190777 0.0959429 -0.011545732
0001d0 be b2 56 3c 55 5c 0c 3c 27 91 33 bd e4 7c 61 bd
       0.013104139 0.008566936 -0.0438396 -0.055050746
0001e0 cc 5b 0c 3e 9a 92 49 bd 90 a7 86 bd 36 90 1d be
       0.13706893 -0.049212076 -0.06574929 -0.15387043
0001f0 5b 0c a2 bd 50 57 1e be 6d 92 78 bd 2f 55 82 bd
       -0.07912513 -0.15462995 -0.060686518 -0.06363904

model.6.weight f4 [3, 128]
000000 e3 17 16 3c 97 a0 aa bc 38 e5 ab 3d 3b e9 fe bd
       0.0091609685 -0.020828528 0.083933294 -0.12446829
000010 e2 80 39 3c b9 26 8a 3d ad 55 22 3c 64 eb 6c bc
       0.011322232 0.06745667 0.009908122 -0.014460418
000020 44 6a 3d 3c cb 87 f1 3d 6c ad b9 3c c1 87 ef bc
       0.01156098 0.117934786 0.022665702 -0.029239537
000030 5b 84 d7 bd 33 6d 85 bc 97 1b bc bc 30 cb f9 bc
       -0.10523292 -0.016287422 -0.022962375 -0.030492395
000040 b8 13 7b 3d 13 a0 1a 3d 41 06 2f 3d b6 53 77 bd
       0.061298102 0.037750315 0.042730574 -0.060382567
000050 27 c4 6f bb 8a ee 80 be 69 f6 4b 3e c4 18 e5 bb
       -0.0036585422 -0.2518199 0.19918217 -0.0069914777
000060 53 44 04 3c b3 9d 7b bd 46 be 70 be 1d 55 c5 3c
       0.00807293 -0.06142969 -0.23510084 0.024088437
000070 d9 8e 1a 3d 33 13 bb 3c d9 68 14 3e 95 c9 ca bc
       0.037733886 0.022836303 0.14493121 -0.024754325
000080 7f 7b aa 3c ea 1e 73 bd 6b e9 b4 be 7b e1 30 bf
       0.02081084 -0.059355654 -0.35334334 -0.69094056
000090 9b 40 5b 3d ee b2 2f 3d e5 34 f1 3c 41 c4 7a bc
       0.05352841 0.04289525 0.029444167 -0.01530558
0000a0 c1 a5 1a bc 78 f8 90 3a f3 e6 eb bb 54 3a e7 3d
       -0.009438933 0.0011060378 -0.007199162 0.11290422
0000b0 41 0c e3 3c f4 82 af 3a 30 9b 1c bd ee 4e 44 bd
       0.027715804 0.0013390468 -0.038233936 -0.047926836
0000c0 0d 46 82 3e af 6a 70 bc ec f8 02 be 05 e2 b4 bc
       0.2544407 -0.014673873 -0.12790269 -0.02208043
0000d0 8f 9c 78 3d fe da 06 bf 2f d8 9c 3c 44 bf e9 bc
       0.06069618 -0.52677906 0.019146053 -0.028533585
0000e0 c5 80 ec bc b3 f1 7c 3d 41 94 98 3c 4c ae 0f bd
       -0.028869996 0.06175394 0.01862538 -0.03507833
0000f0 61 3b 53 be 79 c2 48 3b c9 05 86 ba fc e4 2f bc
       -0.2062812 0.0030633493 -0.0010225113 -0.0107357465
000100 f9 e8 a2 be 0e 89 58 be 0a 74 d4 be b2 eb 3b 3c
       -0.3181837 -0.21146032 -0.4149478 0.011469768
000110 26 5f 9c 3c 6f 53 61 3d a8 b3 9b be 50 97 11 3d
       0.019088339 0.05501121 -0.30410504 0.035544693
000120 b3 89 52 be 3b ad d6 bd c1 d2 85 bd e7 8f 0c be
       -0.2056034 -0.1048226 -0.06534339 -0.1372677
000130 cf fb 35 3e 72 e7 db bc 2d 6a 98 bc 2c 1e 1b be
       0.17771839 -0.02684376 -0.018605316 -0.15148228
000140 e0 cc fc bc 0d 4b 39 bd f9 4c 99 bb 53 45 3f bb
       -0.03085941 -0.04523759 -0.0046783653 -0.0029185608
000150 8e c6 fb 3d e7 e1 8e bc 77 18 c2 bc 0c 19 c7 bd
       0.12293731 -0.017441703 -0.023693306 -0.09721574
000160 42 a1 9c 3a 4d a9 d5 3b 43 43 23 bc 6e 7a 4e 3e
       0.0011949914 0.0065204264 -0.009964767 0.2016389
000170 30 b8 33 3e 55 00 87 3e 7b 71 b2 bd 16 c8 ba bd
       0.1755073 0.2636744 -0.08713051 -0.091201946
000180 bd 6b 82 bd 06 24 12 bc 14 6b 90 3d 8a d7 ed bc
       -0.06368206 -0.0089197215 0.070516735 -0.029033441
000190 39 09 48 3d 4e 09 0a bd 6d 98 87 3d ec c1 3b bd
       0.04883692 -0.03370028 0.0662087 -0.045839235
0001a0 95 4a 8a bd 7b 97 03 be f7 e5 2b 3c 74 56 8e 3d
       -0.06752507 -0.12850754 0.01049184 0.069500834
0001b0 a6 c0 52 bd 20 3f 78 3d 3a 7a bf 3d da 81 7c be
       -0.051453255 0.060607076 0.09349485 -0.2465891
0001c0 1d ae 27 3e f4 04 e8 3c 1c 0a d4 bd d9 23 9d 3c
       0.16375013 0.028322674 -0.10353491 0.019182133
0001d0 25 60 d7 3c 93 a2 1a bd a3 ef 80 3c 5d 64 b8 bc
       0.026290962 -0.0377527 0.015739268 -0.022508794
0001e0 0d b7 10 3e 77 77 b1 bc 70 c9 ce bd 23 2b b4 3e
       0.14132328 -0.02166341 -0.10097015 0.3518916
0001f0 cf 51 10 bc 9e 37 6b be 71 ff be ba 3c 43 1c 3d
       -0.008808567 -0.22970435 -0.0014571977 0.038150057
000200 fe c1 4e 3d 2a ad 87 3c 32 81 00 be e6 f0 26 3c
       0.050477974 0.016562063 -0.12549284 0.010189271
000210 63 cf c7 3a 05 ad 78 bd f8 85 3c bc 01 d7 38 3d
       0.0015244301 -0.06071188 -0.01150655 0.04512692
000220 af 07 00 bc 17 d7 96 bd 5f bc 19 bc b8 f4 88 bd
       -0.007814332 -0.07365244 -0.00938329 -0.066873014
000230 78 93 5c 3e f6 13 d7 3c 2c d9 52 be fd 4f 3f 3d
       0.2154063 0.026254635 -0.20590657 0.046707142
000240 71 c3 07 3e 8e 9b 11 bc 5f a9 46 3d 5e 86 20 3d
       0.13258149 -0.008887185 0.04850137 0.039190643
000250 e6 67 bd 3c 5a 0c 39 3f 8e cb 13 3f 36 a6 8b bd
       0.023120832 0.7228447 0.57732475 -0.068188116
000260 c0 d9 e2 bd 7e 29 45 bc 5a b4 57 3e 5a dd d7 3b
       -0.11076689 -0.012033818 0.21064892 0.0065876665
000270 56 c4 f5 bd c6 be 35 bd 75 f0 3e bc b2 7c f5 3c
       -0.12000339 -0.04437139 -0.011654009 0.029966686
000280 89 64 da 3c d6 08 ba 3b 38 65 91 3e 01 22 16 3e
       0.026659267 0.005677323 0.28397536 0.14661409
000290 3c 12 30 3c 1a 14 63 bc 3b 66 47 3b 10 58 89 3a
       0.010746535 -0.013859773 0.0030425924 0.0010478515
0002a0 4c ad 5f be 9a 21 21 bd 35 de 25 3c 1e a9 8d bd
       -0.21843451 -0.039338686 0.010123779 -0.06917022
0002b0 b3 3d a9 bd bf 8a cb bb 46 47 a1 3c 4e cf 32 3d
       -0.08263721 -0.006211608 0.019687306 0.043654732
0002c0 4d 88 ca 3e 99 b4 86 bd da ba 40 3d 2d 46 9b 3c
       0.39557114 -0.06577415 0.047053196 0.01895436
0002d0 4c d0 ff bd ec f0 02 bf e1 61 ea bc 29 ec 0c bd
       -0.12490901 -0.5114887 -0.028611125 -0.034404907
0002e0 2b 1c 38 bc 0b 82 30 be ae a9 9c 3c 10 e9 96 3b
       -0.0112371845 -0.17237107 0.019123878 0.00460542
0002f0 a9 8d 3d 3d 07 ec 26 bd 2d a5 4c bd 60 85 b1 3c
       0.046277676 -0.040752437 -0.04996221 0.021670043
000300 d4 5b 4d 3d 62 53 84 3d a0 be 3a 3e 05 e1 57 3d
       0.050136402 0.064612165 0.1823678 0.05270483
000310 0b 6b df 3c 1b 82 db bb 5d 05 9b 3e d3 ef 36 bd
       0.027272722 -0.0066988594 0.3027753 -0.044662308
000320 1a 8b ca 3d ce f9 00 be 1d 77 eb bb f7 01 9a 3d
       0.09889813 -0.12595293 -0.0071858303 0.07519906
000330 15 3d 82 3d 8a dc 7e 3d 22 8b 22 bd 6f 86 06 be
       0.06359307 0.06222204 -0.03968347 -0.1313722
000340 d7 f4 27 bc ec 43 59 be d5 94 27 3d 57 a4 9a bc
       -0.010251245 -0.21217316 0.04091342 -0.018877191
000350 96 75 b2 ba 57 fb 2e 3c 65 75 d4 3b 0c 5f 2d 3d
       -0.0013615366 0.010680041 0.006483721 0.042326972
000360 ac 9c 86 bd 6b b7 cb bb 5c 1a 70 3c 73 63 09 3e
       -0.065728515 -0.0062169335 0.014654722 0.13416843
000370 49 fd 8c bb 8a f1 2d 3d be bd e2 3e d2 b3 93 bd
       -0.004302655 0.042466678 0.44285387 -0.072120324
000380 05 d1 6d bd 96 3f f3 ba a8 d5 a5 bc 07 81 53 bb
       -0.058060665 -0.0018558379 -0.02024348 -0.0032272951
000390 d5 24 a4 bc 3c b0 20 3d de 34 7c bc ea 9f 57 bd
       -0.020037094 0.03923057 -0.015393464 -0.05264274
0003a0 62 0e e0 bc 8b 4a 7d be 71 19 9b 3e 8e 62 12 bb
       -0.027350608 -0.24735467 0.30292848 -0.0022336575
0003b0 4b 07 32 bc 2b b4 50 3d 19 12 40 bd 39 fa ab 3d
       -0.010865997 0.05095307 -0.04689226 0.083973356
0003c0 b7 f7 c3 bc 61 64 87 3c 87 cb b9 be d2 70 d5 3c
       -0.02392183 0.016527357 -0.36288092 0.026054773
0003d0 7f 09 30 3d bc e4 4c bd 69 3f c1 3b 86 e3 bc bb
       0.042977806 -0.050022826 0.0058974517 -0.0057644276
0003e0 1a 06 98 bd 3d 0a d8 3c b0 70 11 3d c2 e9 83 3e
       -0.07423039 0.02637207 0.035507858 0.2576428
0003f0 d9 83 1c 3c 16 f2 f2 3e aa 99 f3 bb ec 0f 01 bd
       0.009552919 0.47450322 -0.0074340897 -0.031509325

model.6.bias f4 [3]
000000 37 07 99 3e 95 a8 ce bd c4 62 65 3e
       0.29888317 -0.10090748 0.22400957
