models/best_model_left.pth (torch, 138020 bytes, 8 tensors)

model.0.weight f4 [128, 1]
0	0xbe4cc801	-0.1999817
1	0xb9146b63	-0.00014154385
2	0xbe4bd0fb	-0.19903938
3	0x3a601626	0.0008548222
4	0x3898dd23	7.289115e-05
5	0xbe095852	-0.13412598
6	0xbe55674c	-0.20840186
7	0xb7280c89	-1.0016499e-05
8	0xb84275b9	-4.6362842e-05
9	0x389d4596	7.499305e-05
10	0xbdd8da12	-0.105884686
11	0x367282a0	3.6136844e-06
12	0x362e5b12	2.598103e-06
13	0xbe02f3f8	-0.12788379
14	0xbe8f9a2a	-0.28047305
15	0xb67d606b	-3.775606e-06
16	0xb791a0be	-1.7360198e-05
17	0xb7e46ddb	-2.7230873e-05
18	0xbd8bf8f9	-0.06834597
19	0x35e88196	1.7323061e-06
20	0xb9048b04	-0.00012640288
21	0xb83eb238	-4.546551e-05
22	0xbe074229	-0.13208832
23	0x3e1587dc	0.14602607
24	0x381a239f	3.6749636e-05
25	0xb94f8254	-0.0001978961
26	0x381d1ae0	3.7456746e-05
27	0x387cc711	6.0266877e-05
28	0xbf17a77b	-0.5923993
29	0xbd8842c7	-0.06653362
30	0xb89200bd	-6.96196e-05
31	0xbdc40a90	-0.09572327
32	0xbf36cfa4	-0.71410584
33	0xbd8c1e80	-0.06841755
34	0x37344207	1.0744209e-05
35	0xbdacd671	-0.08439339
36	0x39b6d162	0.00034869747
37	0x3dae309c	0.08505365
38	0x3e1bd2b6	0.15217099
39	0x369e18f9	4.711674e-06
40	0xbf18945c	-0.5960138
41	0x38dd9483	0.00010565764
42	0x3dfe783a	0.12425275
43	0xbd8c27e8	-0.06843549
44	0x37a2695f	1.9360972e-05
45	0xb70c686a	-8.368961e-06
46	0xb84f9bfd	-4.949792e-05
47	0xb59d035f	-1.1698393e-06
48	0xb76b542c	-1.4026689e-05
49	0xb835f6bb	-4.338355e-05
50	0xb9301a8e	-0.0001679456
51	0x368264f2	3.8860535e-06
52	0xbf11b687	-0.5691914
53	0x37119a92	8.678662e-06
54	0x3dabdaed	0.08391366
55	0xb8876a81	-6.4571395e-05
56	0xbe445613	-0.1917346
57	0xbf036e59	-0.5134025
58	0x377a6bdc	1.4926274e-05
59	0xbdaeb046	-0.08529715
60	0xb50f888c	-5.3470353e-07
61	0x3866814f	5.49567e-05
62	0x389d4018	7.498282e-05
63	0xbe5bc49f	-0.21461724
64	0xbe322dce	-0.17400286
65	0x3825b80b	3.951047e-05
66	0x3e1d4ed1	0.15362097
67	0xbd88a815	-0.06672684
68	0xbe323074	-0.17401296
69	0xb81426bc	-3.5322024e-05
70	0xbe11229c	-0.14173359
71	0xbe0e204c	-0.13879508
72	0x39edf0b2	0.00045383495
73	0xb8611ff2	-5.367393e-05
74	0xbdb42591	-0.08796228
75	0xb4abda1b	-3.2009925e-07
76	0xb93a379d	-0.0001775906
77	0x3dae1d52	0.08501686
78	0x3e1c3716	0.15255389
79	0xbdb1ee4a	-0.08688028
80	0x3daabc95	0.083367504
81	0xbf0a7204	-0.54080224
82	0x3e07615e	0.13220736
83	0x37a20c42	1.9317613e-05
84	0xb85c3214	-5.2498726e-05
85	0xb754e0da	-1.2688537e-05
86	0xb78f22a6	-1.7063063e-05
87	0x3830fd46	4.219755e-05
88	0xb8709f7f	-5.7369e-05
89	0xbe10b231	-0.14130475
90	0xbd88df03	-0.06683161
91	0x37868802	1.6037378e-05
92	0xb78b3b66	-1.659775e-05
93	0xb69e166b	-4.7113767e-06
94	0xb82e3466	-4.1533633e-05
95	0x36643816	3.4007294e-06
96	0xbf0f5c31	-0.5600005
97	0xb86844cc	-5.5377182e-05
98	0x36bf8acc	5.7084017e-06
99	0x37d0fc1f	2.4912935e-05
100	0x37ae9b89	2.0814843e-05
101	0xb88ce896	-6.719043e-05
102	0xb81d9d89	-3.7578433e-05
103	0xb836c541	-4.357589e-05
104	0xb7e1ed84	-2.6932692e-05
105	0x3723a3aa	9.753663e-06
106	0xb53df3a2	-7.076252e-07
107	0xbf0dc4c3	-0.5537836
108	0xb7de436c	-2.6495858e-05
109	0xb600d8e5	-1.9199736e-06
110	0xb804482d	-3.153847e-05
111	0x3820a153	3.8297218e-05
112	0xb696565b	-4.4804015e-06
113	0x3622c929	2.4256972e-06
114	0x3899abbf	7.327599e-05
115	0x3a4fb07d	0.0007922722
116	0xbd955277	-0.072911195
117	0xb8946a11	-7.076946e-05
118	0x3dae8308	0.08521086
119	0xb80e0d65	-3.3867913e-05
120	0xbf50521d	-0.81375295
121	0xbea9a08e	-0.33130306
122	0xba629b66	-0.0008644372
123	0x35878574	1.0097124e-06
124	0x3dae4b0a	0.08510406
125	0xb56e3ef7	-8.8753535e-07
126	0xb8792506	-5.9400707e-05
127	0xb79dcc2b	-1.8810932e-05

model.0.bias f4 [128]
0	0x3d6a6d2f	0.05723303
1	0xb6526bb8	-3.135514e-06
2	0x3d6d15d0	0.05788213
3	0xba6cbcfa	-0.0009030845
4	0xb89cfda2	-7.4859025e-05
5	0x3d8043f4	0.06262961
6	0x3d459dad	0.048246074
7	0xb827338a	-3.9863902e-05
8	0xb6432f79	-2.9084897e-06
9	0xb8b43401	-8.592755e-05
10	0x3d8a7332	0.06760253
11	0xb6a82a77	-5.0117337e-06
12	0xb6fc1c65	-7.513491e-06
13	0x3d6470fe	0.05577182
14	0x3d5c1344	0.05372931
15	0xb857c85a	-5.1446586e-05
16	0xb80bec1f	-3.3360087e-05
17	0xb749ae97	-1.20211835e-05
18	0x3d8bccd2	0.06826176
19	0xb5f96a85	-1.8582947e-06
20	0xb4f2dbcd	-4.523594e-07
21	0xb864920d	-5.4495456e-05
22	0x3d80b870	0.06285179
23	0xbc8f9668	-0.017527774
24	0xb84011ac	-4.5792825e-05
25	0xb4d33a74	-3.9344343e-07
26	0xb8450083	-4.6968937e-05
27	0xb89b22a9	-7.397432e-05
28	0x3d415319	0.04719839
29	0x3d8587c8	0.06520039
30	0xb7979ac0	-1.8072664e-05
31	0x3d83a119	0.06427211
32	0x3d2dd0ec	0.04243557
33	0x3d8be7b6	0.06831305
34	0xb745e44e	-1.1795271e-05
35	0x3d8593fb	0.06522366
36	0xb9cb3cf2	-0.00038764585
37	0xbd867127	-0.06564551
38	0xbd31f1c3	-0.043443453
39	0xb841dacf	-4.6218567e-05
40	0x3d6c041a	0.0576211
41	0xb8f14949	-0.00011505426
42	0xbd754792	-0.059882708
43	0x3d8bf162	0.068331495
44	0xb7d65e72	-2.5554767e-05
45	0xb4043f26	-1.2316431e-07
46	0xb8070530	-3.219134e-05
47	0xb3f2731f	-1.12899436e-07
48	0xb872e25b	-5.7908106e-05
49	0xb58e6944	-1.0610461e-06
50	0xb6d79228	-6.424514e-06
51	0xb70b1830	-8.290677e-06
52	0x3d1c8d38	0.038220614
53	0xb71cc853	-9.344966e-06
54	0xbd88037e	-0.06641291
55	0xb8840f61	-6.297115e-05
56	0x3d4f3225	0.05058493
57	0x3d320dde	0.043470256
58	0xb78df449	-1.6922264e-05
59	0x3d865b21	0.0656035
60	0xb56e21e0	-8.8711204e-07
61	0xb88997a1	-6.560912e-05
62	0xb8c264f5	-9.2694456e-05
63	0x3d41b4ee	0.04729169
64	0x3d5e3bb1	0.054256145
65	0xb82ec385	-4.1666925e-05
66	0xbd36f956	-0.04467138
67	0x3d85f1bb	0.06540247
68	0x3d5dd596	0.05415877
69	0xb736ff1b	-1.0907442e-05
70	0x3d6839c5	0.05669572
71	0x3d65262a	0.0559446
72	0xba0b935b	-0.0005324387
73	0xb7389d59	-1.100389e-05
74	0x3d860fc5	0.065459765
75	0xb719ef79	-9.175267e-06
76	0xb7aa3bd9	-2.0293448e-05
77	0xbd869933	-0.06572189
78	0xbd34519c	-0.04402314
79	0x3d88180c	0.066452116
80	0xbd91a673	-0.07111826
81	0x3d36a10d	0.044587184
82	0xbd6a02e6	-0.05713167
83	0xb7a4bf23	-1.9639328e-05
84	0xb8541650	-5.056552e-05
85	0xb7841432	-1.574503e-05
86	0xb886afb4	-6.422345e-05
87	0xb849c18c	-4.810239e-05
88	0xb4ccb1bd	-3.8127283e-07
89	0x3d84207b	0.06451508
90	0x3d85a514	0.06525627
91	0xb80f2eea	-3.413755e-05
92	0xb7154d66	-8.899113e-06
93	0xb5247140	-6.125956e-07
94	0xb898aba2	-7.279894e-05
95	0xb8596045	-5.182649e-05
96	0x3d7cdc06	0.06173327
97	0xb83500e3	-4.315459e-05
98	0xb6feb53a	-7.5908874e-06
99	0xb886eb02	-6.4333915e-05
100	0xb7b7fd1b	-2.1933161e-05
101	0xb850c45a	-4.977393e-05
102	0xb7d42ed0	-2.5294168e-05
103	0xb79f7335	-1.9007924e-05
104	0xb8510c69	-4.984104e-05
105	0xb73e0a9b	-1.1327352e-05
106	0xb5962b68	-1.1188504e-06
107	0x3d2abe00	0.041685104
108	0xb8420291	-4.6255594e-05
109	0xb54625b8	-7.3815636e-07
110	0xb8883d3a	-6.49639e-05
111	0xb8408f69	-4.590993e-05
112	0xb4cd3f55	-3.8230306e-07
113	0xb69754ff	-4.5100455e-06
114	0xb8aadace	-8.146987e-05
115	0xba5933e5	-0.0008285626
116	0x3d9053cc	0.07047233
117	0xb897ebfc	-7.2441966e-05
118	0xbd875155	-0.0660731
119	0xb806e825	-3.216429e-05
120	0x3da611c1	0.08108855
121	0x3d54d456	0.05196031
122	0xb857ec21	-5.1479907e-05
123	0xb5ce5d20	-1.5375299e-06
124	0xbd86be76	-0.06579296
125	0xb3b9aacf	-8.645804e-08
126	0xb4afaa43	-3.2720172e-07
127	0xb81a9f30	-3.6864716e-05

model.2.weight f4 [128, 128]
0	0xb721f786	-9.653979e-06
1	0xba655490	-0.00087482575
2	0xb70f0204	-8.5239335e-06
3	0x3c1e96bd	0.0096794935
4	0x37df9ce9	2.6656739e-05
5	0xb70f1f96	-8.530818e-06
6	0xb7279bb7	-9.990231e-06
7	0xb68a113c	-4.114727e-06
8	0x370d1220	8.408475e-06
9	0x37e2983b	2.7012187e-05
10	0xb73e64df	-1.1348368e-05
11	0xb6401fcb	-2.8628735e-06
12	0x35beda99	1.4219723e-06
13	0xb757b51c	-1.2857166e-05
14	0xb79e6af5	-1.8884873e-05
15	0x35c37d73	1.4565143e-06
16	0xb6aab697	-5.087651e-06
17	0xb65b1c56	-3.2650037e-06
18	0xbfe9af5a	-1.8256638
19	0x351a89e8	5.757015e-07
20	0xba1b7411	-0.0005930076
21	0xb38e2a8f	-6.6201316e-08
22	0xb760ba34	-1.3394794e-05
23	0x3db59bb7	0.08867591
24	0x37ab5058	2.0422201e-05
25	0xba59a9f3	-0.00083032175
26	0xb5b68fbd	-1.360189e-06
27	0xb6c11a55	-5.7549137e-06
28	0xb726de5f	-9.946146e-06
29	0xc001f5e0	-2.030632
30	0x369a0bd4	4.5909346e-06
31	0xb7878562	-1.6155365e-05
32	0xb72cdb81	-1.0303106e-05
33	0xbfeaef07	-1.8354195
34	0x363308b3	2.6678142e-06
35	0xb792c7af	-1.7497541e-05
36	0x36aae37a	5.0928766e-06
37	0x3eb2e032	0.34936672
38	0x3e002a76	0.12516198
39	0xb6bf5107	-5.7016764e-06
40	0xb76b5c1c	-1.4028537e-05
41	0x381bb1b2	3.712037e-05
42	0x3e322842	0.1739817
43	0xbfea7b5f	-1.83189
44	0x36d384aa	6.303734e-06
45	0xb65b5f48	-3.2689004e-06
46	0xb6d7296f	-6.412323e-06
47	0xb475961b	-2.2872011e-07
48	0x35d5089b	1.5872241e-06
49	0x369dc602	4.7020158e-06
50	0xba7d72f5	-0.0009668314
51	0xb49265f4	-2.72688e-07
52	0xb5a1ec58	-1.206422e-06
53	0x36988552	4.5454735e-06
54	0x3ec677f9	0.38763407
55	0x36a3af73	4.8782035e-06
56	0xb7aedff3	-2.08467e-05
57	0xb716a5ff	-8.979346e-06
58	0x35301456	6.55947e-07
59	0xb6ad2adc	-5.1607913e-06
60	0x366aab42	3.4968402e-06
61	0x37bacbda	2.2267854e-05
62	0x37a63e46	1.981774e-05
63	0xb6fe702f	-7.58285e-06
64	0xb77bb64d	-1.5003211e-05
65	0x36c0e990	5.749236e-06
66	0x3e01b0eb	0.12665145
67	0xc004c3b3	-2.0744445
68	0xb6775e80	-3.6860874e-06
69	0xb4d0460e	-3.879399e-07
70	0xb63311df	-2.668348e-06
71	0xb6937f97	-4.395795e-06
72	0x39c4ed49	0.00037560824
73	0x36365199	2.716761e-06
74	0xb7b75bdc	-2.1858075e-05
75	0x35ad39ed	1.2906363e-06
76	0xba46641a	-0.0007568017
77	0x3eb36314	0.35036528
78	0x3e00dcca	0.12584224
79	0x362bdef4	2.5610761e-06
80	0x3f19b3a8	0.6003976
81	0xb7b80240	-2.1935557e-05
82	0x3e1ffbf9	0.15623464
83	0x33ae08ae	8.104085e-08
84	0x35d7957f	1.6062257e-06
85	0x361c4f90	2.3292123e-06
86	0x35bf013c	1.4230968e-06
87	0xb549127d	-7.490524e-07
88	0xb7a24429	-1.9343644e-05
89	0xb754e15d	-1.2688656e-05
90	0xc004c03a	-2.0742326
91	0xb5f94eae	-1.8574844e-06
92	0x36cbfccc	6.079301e-06
93	0xb7142f26	-8.832465e-06
94	0xb51a4ac0	-5.7478246e-07
95	0x364d86b5	3.062579e-06
96	0xb58950b0	-1.0230779e-06
97	0x366b1b56	3.503364e-06
98	0xb6492473	-2.997255e-06
99	0x36983f23	4.537303e-06
100	0x35cfb9e5	1.5476804e-06
101	0xb60de564	-2.114416e-06
102	0xb65760bf	-3.209381e-06
103	0x365929c2	3.2359826e-06
104	0xb6b022d5	-5.2492637e-06
105	0xb5ef229f	-1.7816964e-06
106	0x36a3ac11	4.8778097e-06
107	0xb6b88377	-5.498932e-06
108	0xb68c73f3	-4.1858234e-06
109	0x36d8bd27	6.459322e-06
110	0xb6d3b196	-6.3089637e-06
111	0xb5918930	-1.0843269e-06
112	0xb5108a07	-5.3845037e-07
113	0xb69161bf	-4.332716e-06
114	0x37af0ace	2.0866657e-05
115	0xb77fe388	-1.5252161e-05
116	0xc09e2ab1	-4.9427114
117	0x369f3603	4.744857e-06
118	0x3eb568c4	0.35431492
119	0x367ff42a	3.8140083e-06
120	0xb75321d3	-1.2584455e-05
121	0xb767afe8	-1.3809629e-05
122	0xbb9ab887	-0.0047217044
123	0x36a39156	4.874698e-06
124	0x3eb42476	0.35184067
125	0xb4f275c8	-4.516171e-07
126	0xb982d0d5	-0.00024951124
127	0xb536b9da	-6.8070733e-07
128	0x3baa4cbc	0.0051971357
129	0xb7e50ead	-2.7305761e-05
130	0xbc1ddff9	-0.009635919
131	0xb63f15e3	-2.8473958e-06
132	0x3716a0e5	8.978158e-06
133	0x3e431296	0.19050059
134	0x3e051917	0.12997852
135	0xb663d797	-3.3951126e-06
136	0x35bf9f93	1.4277051e-06
137	0xb6e7976a	-6.9019634e-06
138	0x3da514eb	0.080606304
139	0xb6108c25	-2.1539247e-06
140	0x37d80945	2.5753523e-05
141	0x3e651882	0.2237263
142	0xbd8d7792	-0.06907572
143	0x36084d27	2.0310488e-06
144	0x36d50914	6.3489515e-06
145	0x36752bdc	3.6533374e-06
146	0x3d0ee457	0.03488573
147	0x36f5f176	7.3296787e-06
148	0xb89e1039	-7.537049e-05
149	0xb6a8dd00	-5.032518e-06
150	0x3e389699	0.18026198
151	0xbe64a6cc	-0.22329253
152	0x38dcbe0f	0.00010525819
153	0xb921e92c	-0.0001544102
154	0x36920c2b	4.3525556e-06
155	0xb5de7f9e	-1.657743e-06
156	0xbf3348ca	-0.7003294
157	0x3cff4739	0.031161891
158	0xb6bf5497	-5.702091e-06
159	0x3d8cb913	0.068712376
160	0xbf8c2b5c	-1.0950732
161	0x3d0e60cf	0.034760293
162	0x378e12d9	1.6936496e-05
163	0x3d3c0dd9	0.045911644
164	0x3874aca1	5.8334906e-05
165	0xb6d79374	-6.424665e-06
166	0xc0118b63	-2.2741325
167	0xb4150525	-1.3878578e-07
168	0xbeff2c6f	-0.49838588
169	0x391c794a	0.00014922503
170	0x351f9237	5.9444886e-07
171	0x3d0fd965	0.035119433
172	0x39892007	0.00026154539
173	0xb48c29b6	-2.610738e-07
174	0xb5401945	-7.1562346e-07
175	0x363e8c35	2.8393818e-06
176	0x36d65925	6.388075e-06
177	0x36c0d02f	5.7462817e-06
178	0xb89d4cbe	-7.500638e-05
179	0x37d61886	2.5522208e-05
180	0xbf66a498	-0.900949
181	0x37a231e8	1.9335144e-05
182	0xb6806dc3	-3.827475e-06
183	0x33c0bb47	8.974762e-08
184	0x3e458aea	0.19291273
185	0xbf17b989	-0.5926748
186	0x37f22afc	2.8868664e-05
187	0x3d3f863b	0.04675887
188	0x36b769d6	5.466146e-06
189	0x3713568e	8.782035e-06
190	0xb71a46ac	-9.19557e-06
191	0x3e59a797	0.21255337
192	0x3f8fac75	1.1224505
193	0x360ba67b	2.0809518e-06
194	0xc03f4d73	-2.9891021
195	0x3d020be2	0.031749614
196	0x3f91a08d	1.1377121
197	0x35ace9b2	1.2883013e-06
198	0x3e9d7005	0.30749527
199	0x3e96ec96	0.29477376
200	0x3aef3ca4	0.0018252325
201	0x361c73c3	2.3313194e-06
202	0x3d559ad7	0.05214962
203	0x3986b2f7	0.0002569181
204	0xb88c6d48	-6.6960754e-05
205	0xb72dd25b	-1.0360581e-05
206	0xc02693dc	-2.6027746
207	0x3d450b61	0.048106555
208	0xb63ee902	-2.8447835e-06
209	0xbf2a7c6a	-0.6659609
210	0xb72887cb	-1.0045197e-05
211	0xb6109864	-2.1546375e-06
212	0xb652e72b	-3.1426996e-06
213	0x361850fe	2.2696909e-06
214	0x35798422	9.2952007e-07
215	0x368f93a9	4.278922e-06
216	0xb8936c6b	-7.029701e-05
217	0x3e5262b7	0.20545469
218	0x3cfcc8e9	0.03085752
219	0xb6187a7e	-2.2721065e-06
220	0x36302350	2.6246598e-06
221	0x3695599f	4.4509793e-06
222	0x3698ff58	4.559679e-06
223	0xb2b87ebc	-2.1478051e-08
224	0xbeb35447	-0.35025236
225	0x35fe3a0d	1.894137e-06
226	0x36663b08	3.4307031e-06
227	0xb684378d	-3.9403735e-06
228	0x36378f1b	2.7352423e-06
229	0x36929422	4.368384e-06
230	0x36d5089b	6.3488965e-06
231	0x363ea6da	2.8409327e-06
232	0xb6bc1e26	-5.6063463e-06
233	0xb7ade5d8	-2.0730236e-05
234	0x37396eee	1.1052687e-05
235	0xbf33dd92	-0.70259964
236	0xb50b744b	-5.1950764e-07
237	0x372ddb26	1.0362628e-05
238	0x3617f9c7	2.2646143e-06
239	0x36cbcbe4	6.0736074e-06
240	0x3697625c	4.511601e-06
241	0x393eb03b	0.00018185463
242	0xb78f19cd	-1.7058943e-05
243	0xb8fffcb4	-0.00012206417
244	0x3d0a5c8d	0.03377967
245	0xb6558c9e	-3.1821323e-06
246	0xb7085360	-8.125644e-06
247	0xb6615f88	-3.358322e-06
248	0xbf06ac82	-0.52606976
249	0xbe357c33	-0.1772316
250	0xb871213b	-5.7489826e-05
251	0x3645c469	2.9469613e-06
252	0xb6e3b7ce	-6.786525e-06
253	0x35cc7961	1.523451e-06
254	0xb88d70d8	-6.744423e-05
255	0x36b4b2b9	5.385224e-06

model.2.bias f4 [128]
0	0xbd20d014	-0.03926094
1	0xbbd5b5ab	-0.0065219007
2	0xb5c50956	-1.4680361e-06
3	0xb7f7ee83	-2.955576e-05
4	0xbd97ee76	-0.0741853
5	0x3da43c08	0.080192626
6	0x3d159137	0.03651544
7	0xb6a75ff1	-4.988157e-06
8	0xb62ceb22	-2.5766863e-06
9	0xb738d6c4	-1.1017259e-05
10	0xb82e88cb	-4.161223e-05
11	0xb734e023	-1.0781022e-05
12	0xb945a49d	-0.00018848707
13	0x3ca049da	0.019566465
14	0xb6a7daf2	-5.0024764e-06
15	0xb9d28598	-0.00040153856
16	0xbac100af	-0.0014724935
17	0xb618a201	-2.2744064e-06
18	0xb73609a8	-1.0850294e-05
19	0xb8a8be85	-8.046351e-05
20	0x39f509b6	0.00046737277
21	0xb720c7c9	-9.583259e-06
22	0xb625e5c7	-2.4720664e-06
23	0xbb9b8088	-0.0047455467
24	0xb6fd9bd4	-7.5581283e-06
25	0xb635304c	-2.6999214e-06
26	0x3d034cb2	0.032055564
27	0xbc74cabe	-0.014940916
28	0xb6854fc0	-3.972993e-06
29	0xb6fd7bce	-7.5544003e-06
30	0xb7a4001b	-1.9550373e-05
31	0xb83e90ec	-4.54345e-05
32	0xb6ade745	-5.182725e-06
33	0x3cf0e967	0.02940817
34	0x3d13175e	0.035910957
35	0xb94fb06e	-0.00019806784
36	0xbd4466ae	-0.047949485
37	0x3d0f9359	0.03505263
38	0x3d2ab98d	0.04168086
39	0xb7528cf3	-1.2549793e-05
40	0xb813307b	-3.5092682e-05
41	0xb6cdfead	-6.1391243e-06
42	0xbbae0280	-0.0053103566
43	0x3ce2f7b0	0.027705997
44	0xb6b90a17	-5.5146043e-06
45	0x3d08cd4a	0.033398904
46	0xb82e6b9b	-4.1585048e-05
47	0xb6ccc122	-6.1021574e-06
48	0xb7d3e050	-2.5257614e-05
49	0xb989538c	-0.00026192924
50	0xb7f205b0	-2.8851297e-05
51	0xb7369155	-1.0881883e-05
52	0xb7e8dc6e	-2.77592e-05
53	0xb80f1c7f	-3.4120396e-05
54	0xb67ec38d	-3.7962775e-06
55	0xb71d445c	-9.373845e-06
56	0xb7013fd9	-7.703865e-06
57	0xb831c58d	-4.2384072e-05
58	0xbc79b33a	-0.015240485
59	0xb8dd0659	-0.000105392835
60	0xb705e1b7	-7.979971e-06
61	0xb6db7195	-6.5399313e-06
62	0xb5a48c64	-1.2259811e-06
63	0xb7ffb31e	-3.0481777e-05
64	0x3d647b8a	0.05578188
65	0xb487b4af	-2.5277174e-07
66	0x3bb4b265	0.0055144303
67	0xb6524bae	-3.133649e-06
68	0x3d6aa9b6	0.057290755
69	0x3d948ac4	0.0725303
70	0xb87eab18	-6.0717663e-05
71	0x3d2f1fc0	0.04275489
72	0xb8de285c	-0.000105933024
73	0xb8139434	-3.5185556e-05
74	0xb68ad1ce	-4.137145e-06
75	0xb84496b3	-4.687039e-05
76	0xb70366c5	-7.832136e-06
77	0xb60aed76	-2.0701823e-06
78	0xb620baff	-2.3950704e-06
79	0xb5b73a5e	-1.365155e-06
80	0xb8a7959b	-7.991047e-05
81	0xb7c00c10	-2.28938e-05
82	0xbb816b32	-0.0039495463
83	0x3d44b0d9	0.048020218
84	0x3d32c8b2	0.04364843
85	0x3d8b744a	0.0680929
86	0xb6482cd4	-2.9828416e-06
87	0x3d981d99	0.0742752
88	0x3d947a02	0.07249834
89	0xb72b1f4a	-1.0199679e-05
90	0xb911102f	-0.00013834306
91	0xb69b92b7	-4.63644e-06
92	0xb6274cf6	-2.4929736e-06
93	0xb8eda8ae	-0.0001133246
94	0x3c997022	0.018730227
95	0xb7032f60	-7.819239e-06
96	0xbd50501b	-0.050857645
97	0xb758dbee	-1.292581e-05
98	0xb6de5ade	-6.626694e-06
99	0xbd4eb920	-0.050469518
100	0xb6abba57	-5.11789e-06
101	0xb6c9cb22	-6.0139146e-06
102	0xb617a378	-2.2595905e-06
103	0x3c00b1a9	0.0078548575
104	0xbc2bbefa	-0.010482544
105	0x3db64a41	0.089008816
106	0xb6a0b75f	-4.789719e-06
107	0xba87dd5f	-0.0010365656
108	0xb721c87c	-9.643027e-06
109	0x3d0042fa	0.031313874
110	0xb679c139	-3.7216362e-06
111	0xb68568e5	-3.97592e-06
112	0xb99a8cf7	-0.00029478196
113	0xba11c822	-0.0005561133
114	0xbb425197	-0.0029650682
115	0xb87245fe	-5.776248e-05
116	0xb72bd07b	-1.0240935e-05
117	0xb9849560	-0.00025288295
118	0xb6b1a4a1	-5.2941764e-06
119	0x3d1e3477	0.038624253
120	0xb6667e84	-3.4346313e-06
121	0xb6126ad3	-2.1817875e-06
122	0xba857aa1	-0.0010183641
123	0x358220e2	9.695325e-07
124	0xb6d4ced0	-6.3421685e-06
125	0xb6a7db2f	-5.002504e-06
126	0xb7f5630d	-2.92524e-05
127	0xb7b6d92a	-2.1797216e-05

model.4.weight f4 [128, 128]
0	0xbf8daf1b	-1.1069063
1	0xbf3dbf2b	-0.74119824
2	0xb6b7cc9c	-5.4776447e-06
3	0x34a5fc8f	3.0917406e-07
4	0x364eb280	3.0800293e-06
5	0xbd6cef21	-0.05784524
6	0xc03b78e5	-2.9292538
7	0xb685b4ac	-3.984742e-06
8	0xb6b0308a	-5.2508594e-06
9	0x3622e7a6	2.4274718e-06
10	0xb6b94f2f	-5.522648e-06
11	0xb680e98f	-3.841887e-06
12	0xb58bead7	-1.0424654e-06
13	0x3dd98b73	0.10622301
14	0x33e00c30	1.043303e-07
15	0x35e61df4	1.7145053e-06
16	0x3a85d3f2	0.0010210259
17	0x37028e8c	7.781793e-06
18	0x3644984f	2.9294931e-06
19	0xb62c0aac	-2.563621e-06
20	0xbeccf0b8	-0.40027404
21	0x3528e0ed	6.2912187e-07
22	0xb658faaa	-3.2332414e-06
23	0x3f3b4fd8	0.73168707
24	0x372084d7	9.567672e-06
25	0x36aa76d7	5.0802296e-06
26	0xbd047d84	-0.032346264
27	0x3c7e8968	0.01553569
28	0x3510352a	5.3721544e-07
29	0xb6fe370a	-7.5761973e-06
30	0x36ab491e	5.104709e-06
31	0xb85ecde1	-5.3120664e-05
32	0x3543077b	7.2654046e-07
33	0xbd9fb87f	-0.07798862
34	0xbaa504c8	-0.0012589926
35	0x36d5f604	6.3765347e-06
36	0xc10a89dd	-8.658658
37	0x3e088fbd	0.13336082
38	0xbd2848ef	-0.04108518
39	0x3788af34	1.6294049e-05
40	0x3737b941	1.0950783e-05
41	0xb5956cfe	-1.1133086e-06
42	0x3f55b3f3	0.83477706
43	0xbc964dca	-0.01834764
44	0xb61a4041	-2.298519e-06
45	0xbcfd8fb3	-0.03095231
46	0xb862f9a9	-5.4115113e-05
47	0xb727acfc	-9.994252e-06
48	0x36d85606	6.447316e-06
49	0xb994206d	-0.0002825292
50	0xb65634bf	-3.1919187e-06
51	0xb580dfd7	-9.601889e-07
52	0xb6d0310f	-6.2045942e-06
53	0x3671918f	3.5996525e-06
54	0xb69c1e63	-4.6526998e-06
55	0xb6443dac	-2.9242174e-06
56	0x36a9001b	5.0366048e-06
57	0xb810e6f3	-3.4547364e-05
58	0x3eadbd26	0.3393337
59	0x35deaf50	1.6591312e-06
60	0xb72e61dc	-1.0393993e-05
61	0xb5485744	-7.4632794e-07
62	0x3695b5c6	4.4617072e-06
63	0x38015439	3.0834435e-05
64	0xbd691ead	-0.05691402
65	0x37120a82	8.704725e-06
66	0xbee6f1ec	-0.45106447
67	0x3751abb3	1.2497348e-05
68	0xbef2c547	-0.47416136
69	0xbf780e07	-0.96896404
70	0x366b6ebf	3.5082192e-06
71	0xbf036f69	-0.51341873
72	0x368d1e99	4.2056895e-06
73	0xb4d829b6	-4.0263484e-07
74	0xb774bc7a	-1.4587416e-05
75	0xb7f43c3c	-2.9115115e-05
76	0x36da5d95	6.5078007e-06
77	0x36a98343	5.0518734e-06
78	0x35835395	9.784586e-07
79	0xb5c7eb79	-1.4895187e-06
80	0x370843ab	8.121987e-06
81	0xb6d97828	-6.481092e-06
82	0xbee8d4a4	-0.45474732
83	0xc07d8bf8	-3.961668
84	0x3c8cb386	0.017175447
85	0xbff525b6	-1.9152133
86	0xb529530a	-6.3078244e-07
87	0x3db3682f	0.08760106
88	0xbbd21846	-0.006411585
89	0xb66f4535	-3.565406e-06
90	0x366cf747	3.5310675e-06
91	0x35fa2657	1.863761e-06
92	0x35154abf	5.5615595e-07
93	0x364a2708	3.0123065e-06
94	0x3df2a497	0.11847799
95	0x36938b28	4.3971413e-06
96	0xbc95181e	-0.018199977
97	0x37afe64a	2.0968862e-05
98	0x351a02ce	5.737355e-07
99	0xbeccd4bc	-0.40006053
100	0x35f3eadd	1.8173265e-06
101	0xb68d2ed8	-4.207581e-06
102	0x3684439e	3.9417782e-06
103	0x4056eb68	3.358118
104	0x3eabb09c	0.3353318
105	0xbececad1	-0.40389112
106	0xb6850e50	-3.965375e-06
107	0xbab4820b	-0.0013771666
108	0x3638caab	2.7536105e-06
109	0xbcd7014c	-0.026245736
110	0xb6cd79ef	-6.123671e-06
111	0x363cbef9	2.8125344e-06
112	0xb98d3e17	-0.00026939876
113	0x36a394bd	4.875094e-06
114	0x3b5777c7	0.003287779
115	0x36ab5701	5.1063257e-06
116	0xb63a2383	-2.773683e-06
117	0xb98ee711	-0.00027256508
118	0x364bec41	3.0386875e-06
119	0x3d0bdac0	0.034144163
120	0xb6f73bf4	-7.368153e-06
121	0xb5a9b0e7	-1.2642967e-06
122	0x3603e935	1.9656266e-06
123	0x373184e4	1.0580963e-05
124	0x37574b4f	1.2832533e-05
125	0xb6a85fe7	-5.0179547e-06
126	0x36b63d84	5.431184e-06
127	0xb6b690c0	-5.440874e-06
128	0xb6d079b9	-6.2130534e-06
129	0xb70757fd	-8.067113e-06
130	0x35492045	7.4925293e-07
131	0xb70eda1c	-8.514642e-06
132	0xb664066b	-3.3978383e-06
133	0xb6f85681	-7.4010463e-06
134	0xb6f0ba6f	-7.174261e-06
135	0x36acc59e	5.149005e-06
136	0x368cefe7	4.2002534e-06
137	0x369399a5	4.398828e-06
138	0xb5f99953	-1.8596569e-06
139	0x34b584fb	3.3810633e-07
140	0x363a8cf7	2.7798212e-06
141	0xb7041c15	-7.8743515e-06
142	0xb6af09a9	-5.216531e-06
143	0xb717da8e	-9.051188e-06
144	0xb6ccd95a	-6.104977e-06
145	0xb695aca1	-4.4606427e-06
146	0xb662ab25	-3.3776244e-06
147	0x3644f41c	2.9348366e-06
148	0x363ca540	2.8110371e-06
149	0xb4b6f6d1	-3.4079724e-07
150	0xb41712cf	-1.4069813e-07
151	0xb6716d18	-3.59753e-06
152	0x3554f718	7.9335723e-07
153	0xb5a0a29e	-1.1968257e-06
154	0xb7303b7d	-1.0504268e-05
155	0xb64d706d	-3.061282e-06
156	0xb593638e	-1.0981328e-06
157	0xb64d15cb	-3.0560066e-06
158	0x36b1a385	5.2940472e-06
159	0x36bb3126	5.578756e-06
160	0x3631f639	2.6518376e-06
161	0x34202072	1.4912965e-07
162	0x36cc026d	6.079956e-06
163	0x361db04b	2.349744e-06
164	0xb4e3f555	-4.2460547e-07
165	0xb580bbd5	-9.59141e-07
166	0xb6fd4e04	-7.54907e-06
167	0x36982672	4.5344286e-06
168	0x339faf90	7.435949e-08
169	0x36ae8148	5.2006544e-06
170	0xb7164d7e	-8.958739e-06
171	0xb694a7a3	-4.430259e-06
172	0x369479ec	4.4249373e-06
173	0xb68546eb	-3.971965e-06
174	0x35f9e5fe	1.8618882e-06
175	0x36998e79	4.5763413e-06
176	0x36d972d8	6.4804735e-06
177	0xb6b23b44	-5.311713e-06
178	0xb6b1b6e5	-5.296303e-06
179	0xb556b3c7	-7.9982823e-07
180	0x360c8cc1	2.0943555e-06
181	0x3645c85d	2.9471914e-06
182	0xb6dc39bb	-6.5632316e-06
183	0x34fd9e25	4.7239988e-07
184	0xb62caa7e	-2.5729237e-06
185	0xb7024313	-7.764221e-06
186	0x365d5bac	3.2984926e-06
187	0xb63713f0	-2.728073e-06
188	0xb62be27f	-2.5612824e-06
189	0xb6d70765	-6.40836e-06
190	0xb6a9d726	-5.061639e-06
191	0x36b7090b	5.4548777e-06
192	0xb620e621	-2.397581e-06
193	0xb6bd7a43	-5.646872e-06
194	0x331dcf15	3.674275e-08
195	0xb722b47b	-9.697974e-06
196	0xb71b3e69	-9.253251e-06
197	0x36aeb26c	5.206375e-06
198	0xb61aad77	-2.3048758e-06
199	0xb6afb2ce	-5.236222e-06
200	0x364f9993	3.0934796e-06
201	0xb4ced46c	-3.8525047e-07
202	0xb633700c	-2.6738298e-06
203	0xb708107b	-8.110069e-06
204	0xb65697bc	-3.1976806e-06
205	0x36792d29	3.7130178e-06
206	0xb6d7abd3	-6.4275023e-06
207	0xb6e9f655	-6.972618e-06
208	0xb610a9e0	-2.1556552e-06
209	0x36868c50	4.0098457e-06
210	0x341cb3b7	1.4594012e-07
211	0xb641800c	-2.8833774e-06
212	0xb600c4e7	-1.9188099e-06
213	0x35fc5121	1.8799075e-06
214	0x361de593	2.3528453e-06
215	0x34e3fb5e	4.246494e-07
216	0x348bcad5	2.6038347e-07
217	0x36176747	2.2560869e-06
218	0x32ef139d	2.7832181e-08
219	0xb66d2c28	-3.5341454e-06
220	0xb6430ff4	-2.906655e-06
221	0x3636f482	2.7262436e-06
222	0xb6aff520	-5.2439427e-06
223	0xb6ae3cc3	-5.1926777e-06
224	0xb69b1eee	-4.6229607e-06
225	0x368f8588	4.277277e-06
226	0x36ad3e35	5.1630436e-06
227	0xb3c36641	-9.098995e-08
228	0x355e81ad	8.289015e-07
229	0x36a57efb	4.9321657e-06
230	0x3667b5bb	3.4527463e-06
231	0xb6e200a1	-6.735398e-06
232	0x3602d2dd	1.9494248e-06
233	0xb6a27763	-4.8418747e-06
234	0xb53432b1	-6.712899e-07
235	0xb7134d6a	-8.779907e-06
236	0x36d34bcb	6.2971135e-06
237	0xb7189530	-9.094641e-06
238	0x362ad40a	2.5455397e-06
239	0x362be776	2.5615714e-06
240	0xb6036498	-1.9579074e-06
241	0xb699e875	-4.586817e-06
242	0xb66aa8ea	-3.4967038e-06
243	0xb6cd0d1f	-6.1110036e-06
244	0xb5a4a401	-1.2266684e-06
245	0xb69b77f2	-4.6333234e-06
246	0x3640a67c	2.8707136e-06
247	0xb71d12d8	-9.362317e-06
248	0xb725116f	-9.8388255e-06
249	0xb574ee9d	-9.124431e-07
250	0xb70657a4	-8.007428e-06
251	0xb698a425	-4.549062e-06
252	0xb6585c4f	-3.2240239e-06
253	0xb7116605	-8.666427e-06
254	0x3688c8cc	4.0764917e-06
255	0xb4511a25	-1.9474153e-07

model.4.bias f4 [128]
0	0x3de0f918	0.10985011
1	0xb5ac18db	-1.2822233e-06
2	0x3d2e25bb	0.04251645
3	0xb5e5757d	-1.7096023e-06
4	0xbb36c6b6	-0.0027889437
5	0xb7027bc9	-7.777425e-06
6	0x3ddd3a7b	0.1080217
7	0x3d07e013	0.03317268
8	0x3db2fe7c	0.08739945
9	0xb8cb4160	-9.691971e-05
10	0xb6ac3828	-5.132537e-06
11	0xb689be54	-4.1050753e-06
12	0x3cc88843	0.024479037
13	0xb838fbfc	-4.4103697e-05
14	0xb7b26902	-2.1268152e-05
15	0x3d0d7be8	0.034541994
16	0xb6d67ddd	-6.3923494e-06
17	0xb70b1718	-8.290423e-06
18	0xbcbdaa3a	-0.02315246
19	0x3d9fed28	0.07808906
20	0xb7a2cfa6	-1.9408599e-05
21	0x3e0d2d0e	0.13786718
22	0xb671a45c	-3.6007468e-06
23	0xb85da174	-5.284087e-05
24	0xbd036e96	-0.032087885
25	0xb70ba3f5	-8.32322e-06
26	0xb712da29	-8.7530725e-06
27	0xb624a119	-2.4531676e-06
28	0xb79db3a9	-1.879952e-05
29	0xb87e1087	-6.057371e-05
30	0xb7365a4d	-1.086907e-05
31	0xb509401a	-5.1129757e-07
32	0xb5bccd51	-1.4066846e-06
33	0xb638463f	-2.7459025e-06
34	0x3584e98d	9.902739e-07
35	0x3df88fa9	0.12136776
36	0xb6b938e9	-5.520055e-06
37	0xb6182fe4	-2.267764e-06
38	0x3d75cf4d	0.06001215
39	0xb5c6ee77	-1.4821552e-06
40	0x3e00c130	0.12573695
41	0xb6486c38	-2.9865314e-06
42	0xb70acaab	-8.272628e-06
43	0x3de71a45	0.112843074
44	0xb72e6f60	-1.039714e-05
45	0xb6bf3a21	-5.6990107e-06
46	0x3d3a60ee	0.045502596
47	0xba479398	-0.0007613241
48	0x3ddb8f8d	0.107207395
49	0x3cf53ea3	0.029937094
50	0xb6d1a654	-6.2480485e-06
51	0xb6ba6330	-5.554779e-06
52	0x3dc23dd1	0.09484447
53	0xb6c11eb7	-5.755424e-06
54	0x3d827df8	0.06371683
55	0x3df7c706	0.120985076
56	0x3dfa9807	0.12236028
57	0x3db447fb	0.08802792
58	0xb6cde227	-6.1358037e-06
59	0xb7b49b09	-2.1529866e-05
60	0xb6cce8c4	-6.1067713e-06
61	0x3d77fe88	0.060545474
62	0xb6ddc219	-6.608909e-06
63	0x3dbbda65	0.09172515
64	0x3d85cce2	0.06533219
65	0x3d5d5f8e	0.054046206
66	0x3d85d1e3	0.06534173
67	0x3d518f46	0.051162027
68	0x3d76ac9f	0.060223218
69	0xb6d7144d	-6.4098626e-06
70	0xb6cdd8d3	-6.1347178e-06
71	0x3d3f7d3b	0.04675029
72	0xb8d5a9c5	-0.000101882535
73	0xbc445a10	-0.011984363
74	0x3b46673c	0.0030273935
75	0xb72e9736	-1.0406415e-05
76	0xb6bcf892	-5.631774e-06
77	0x3d0ede05	0.034879703
78	0xb6152e0d	-2.2229535e-06
79	0x3d543c5f	0.051815387
80	0xb6acf4da	-5.154504e-06
81	0xb6d5d8ce	-6.373134e-06
82	0xb7de9c1b	-2.6537155e-05
83	0xb617e47c	-2.2633749e-06
84	0xb759e172	-1.29866985e-05
85	0xb6e4e50b	-6.8215936e-06
86	0x35788398	9.2578694e-07
87	0xbba06f7a	-0.0048961015
88	0xb6a462c6	-4.8990796e-06
89	0xb682f9c4	-3.9033785e-06
90	0xb924bf64	-0.00015711557
91	0x3d882d8c	0.066493124
92	0x3dbaa5c5	0.09113649
93	0xbdd5f4f5	-0.104471125
94	0xb68ceefb	-4.200146e-06
95	0xb747d9fd	-1.1912079e-05
96	0x3db607d7	0.08888214
97	0x3df09296	0.11746709
98	0x3e2e0f63	0.16998057
99	0xb6a7b049	-4.99751e-06
100	0xb6eefdd7	-7.1225036e-06
101	0x3df5c32a	0.12000115
102	0x3d75dabf	0.060023066
103	0x3566b298	8.5941565e-07
104	0xbd7a1e61	-0.061064128
105	0xb60df2a1	-2.1151866e-06
106	0xb6bff9c6	-5.721321e-06
107	0xb7253c00	-9.848736e-06
108	0x3e0c09d7	0.13675629
109	0xb69b78b8	-4.6334135e-06
110	0x354412bd	7.304296e-07
111	0x3d842e44	0.06454137
112	0xb6ff9c0a	-7.6177575e-06
113	0xb85b3a74	-5.2268108e-05
114	0xb8a5162d	-7.871944e-05
115	0x3d612e5f	0.054975864
116	0x3e22543e	0.15852448
117	0x339aad7e	7.202742e-08
118	0xb59f3ce3	-1.1864144e-06
119	0x3de8bc49	0.113640375
120	0x3dffc571	0.12488831
121	0x3d5cbf0c	0.053893134
122	0x3de6e8aa	0.11274846
123	0x3e261fd6	0.16223082
124	0xb7301ea8	-1.0497555e-05
125	0xbc22cd6d	-0.009936673
126	0x3dc11476	0.09427731
127	0xb6f03cdf	-7.1596437e-06

model.6.weight f4 [3, 128]
0	0x3e99cca5	0.30038944
1	0xb66135b9	-3.3558883e-06
2	0xbf02eb75	-0.5114053
3	0x350c393e	5.223736e-07
4	0x3f267876	0.6502756
5	0x361c0c6a	2.3253037e-06
6	0xbd415fda	-0.04721055
7	0xbf157bff	-0.5839233
8	0x3f082d78	0.5319438
9	0x359382ea	1.0990454e-06
10	0xb5e30c97	-1.6916482e-06
11	0xb7042b41	-7.877884e-06
12	0x3db592e1	0.088659056
13	0x3825c423	3.9521732e-05
14	0xb5f20872	-1.8032863e-06
15	0xbf132127	-0.5747246
16	0x35b748da	1.3655765e-06
17	0xb61769ed	-2.256241e-06
18	0xbf2d07df	-0.67590135
19	0xbf033bf9	-0.51263386
20	0xb7281c4a	-1.0020167e-05
21	0x3e39f297	0.18158947
22	0x35fae740	1.8693754e-06
23	0x38452bd9	4.7009296e-05
24	0x3d9b9635	0.07597009
25	0xb6ae3e2d	-5.1928423e-06
26	0xb6fd5ae7	-7.55057e-06
27	0xb6c6189e	-5.9037257e-06
28	0xb7cb1ec2	-2.4213809e-05
29	0x3886cfbf	6.428314e-05
30	0xb590ecc6	-1.0797746e-06
31	0x36a3b58f	4.8789148e-06
32	0xb61039b4	-2.149126e-06
33	0x35a98ba2	1.263212e-06
34	0x362ec3b0	2.6041926e-06
35	0xbdddda42	-0.10832645
36	0xb5fd1a2c	-1.8857586e-06
37	0xb71d5f33	-9.3800945e-06
38	0xbe202782	-0.15640071
39	0xb65c338a	-3.2812554e-06
40	0xbe6afd44	-0.22948176
41	0x340cd28f	1.3115117e-07
42	0xb691436b	-4.3291852e-06
43	0x3f89d174	1.0767045
44	0x36d8f91f	6.466303e-06
45	0x36276c19	2.494786e-06
46	0xbf0a78b6	-0.5409044
47	0x39b23b16	0.00033994828
48	0xbd0fc57d	-0.03510045
49	0x3eb03917	0.34418556
50	0x3648fee5	2.995069e-06
51	0xb6a9427d	-5.0443327e-06
52	0xbf0351fe	-0.51296985
53	0xb5c395cd	-1.457223e-06
54	0x3a061a8b	0.00051156495
55	0x3c72dcae	0.014823122
56	0xbee00115	-0.43750826
57	0x3f358407	0.7090458
58	0x35a8a84f	1.256596e-06
59	0x377277aa	1.44521855e-05
60	0xb742dcb6	-1.1614689e-05
61	0x3f6eb89e	0.93250453
62	0x35423f45	7.23627e-07
63	0xbd84be59	-0.064816184
64	0xbf46bd73	-0.77632827
65	0xbfcafd45	-1.5858542
66	0x3e20e419	0.15712012
67	0x3f8e7816	1.1130397
68	0x3f3c9cf7	0.7367701
69	0x36efd9e9	7.148123e-06
70	0x36a5e80f	4.9443984e-06
71	0xc01d5ec2	-2.4589086
72	0x389fff40	7.629255e-05
73	0x3f7769f5	0.9664605
74	0x3e743747	0.23849212
75	0xb5b37667	-1.3370999e-06
76	0x368d6347	4.213685e-06
77	0xbe81e66e	-0.25371116
78	0xb6062258	-1.9987547e-06
79	0x3e9c0ac8	0.30476975
80	0x36db1ce7	6.5300733e-06
81	0xb6759ccf	-3.659912e-06
82	0xb7c145b1	-2.3039845e-05
83	0x35d23f4a	1.5664639e-06
84	0xb706c884	-8.033709e-06
85	0xb61836ee	-2.2681738e-06
86	0x3625da26	2.4713895e-06
87	0x3f9afd0e	1.2108476
88	0xb6129009	-2.1839535e-06
89	0x36840fc5	3.9357424e-06
90	0xb93199b9	-0.00016937302
91	0xbf28c6f4	-0.6592858
92	0xbedfa2f8	-0.43679023
93	0x3f52fd48	0.82417727
94	0x356467bb	8.5087567e-07
95	0xb6a00e5c	-4.7700432e-06
96	0x3eaad361	0.33364394
97	0xbe6cf2f0	-0.23139548
98	0xbf62aa82	-0.88541424
99	0xb6af021e	-5.215653e-06
100	0xb6a29d7b	-4.8463094e-06
101	0xbed240c2	-0.4106503
102	0x3f3eff7a	0.74608576
103	0xb729920e	-1.0107191e-05
104	0x3fc541f8	1.5410757
105	0xb6cffb76	-6.1983546e-06
106	0x3653f79c	3.1585578e-06
107	0xb67c209c	-3.7569907e-06
108	0xbedaf4d5	-0.42764917
109	0xb5318b0a	-6.6139967e-07
110	0x371af5b0	9.236319e-06
111	0x3f3d2181	0.7387925
112	0xb6024f9b	-1.9417846e-06
113	0x3682344f	3.8803914e-06
114	0xb6866e87	-4.0063783e-06
115	0xbf356b29	-0.7086664
116	0x3d0e40e0	0.03472984
117	0xb6eba523	-7.02277e-06
118	0x3491509d	2.7067009e-07
119	0x3dab947d	0.08377931
120	0xbe761204	-0.2403031
121	0x3e980b8f	0.29696319
122	0x3e6e00fb	0.23242562
123	0x3df46cf4	0.11934844
124	0xb7c3ba84	-2.3332665e-05
125	0x3fe79bc6	1.8094413
126	0xbf04497d	-0.51674634
127	0x34d20c5a	3.9124535e-07
128	0x3f4ec9f9	0.80776936
129	0xb70fc890	-8.570161e-06
130	0x400e661f	2.224983
131	0x3706bfdf	8.031696e-06
132	0x3dad1773	0.08451738
133	0xb614553e	-2.2103336e-06
134	0xbf4c731f	-0.7986316
135	0x3e4c5b8c	0.19956797
136	0xbe634525	-0.22194345
137	0x36c81419	5.962804e-06
138	0xb4eb28d8	-4.380188e-07
139	0x371150e4	8.661507e-06
140	0xbdb67814	-0.08909622
141	0xb80f2eea	-3.413755e-05
142	0x36ff64ee	7.611342e-06
143	0x3f6f9b65	0.9359649
144	0x3635ce72	2.7091269e-06
145	0x36ebdc27	7.029175e-06
146	0x3f9c1126	1.2192733
147	0xbd1e112a	-0.038590588
148	0xb7913a0c	-1.7312377e-05
149	0xbf938441	-1.1524736
150	0xb6b55f8f	-5.405345e-06
151	0xb82bd779	-4.097025e-05
152	0x3f7ad4b7	0.9798083
153	0x35b43725	1.3427094e-06
154	0x365fcceb	3.3348867e-06
155	0xb5916ab5	-1.0834398e-06
156	0xb7abd3b9	-2.048338e-05
157	0xb881d1c2	-6.19027e-05
158	0x3554812c	7.9164124e-07
159	0xb609cddf	-2.0534424e-06
160	0x35ad0240	1.2890159e-06
161	0xb72b391b	-1.020569e-05
162	0xb6e1cf31	-6.729643e-06
163	0x3e3f7e7e	0.18700597
164	0xb521608d	-6.0117674e-07
165	0x365a68dd	3.254557e-06
166	0xc000019d	-2.0000985
167	0xb265a4fc	-1.33670675e-08
168	0x3d54da80	0.05196619
169	0x3481d540	2.4183282e-07
170	0xb5adeae6	-1.2957869e-06
171	0x3f2944c2	0.6612054
172	0x371038f4	8.596329e-06
173	0xb673632d	-3.626755e-06
174	0x3f10dd47	0.5658764
175	0x392f5db2	0.00016724205
176	0x3f4bebc9	0.79656655
177	0xbfedd269	-1.8579837
178	0xb61344f0	-2.1944834e-06
179	0x358a0665	1.0283662e-06
180	0xbdc498ba	-0.09599443
181	0x36433d79	2.9093046e-06
182	0x3f4d6007	0.8022465
183	0xbeb8754c	-0.3602699
184	0xbeb76abb	-0.35823616
185	0x3eae15ee	0.34001106
186	0x3526b5c0	6.21043e-07
187	0xb6e6460c	-6.8626887e-06
188	0xb6409220	-2.8695285e-06
189	0x3e4049ad	0.18778105
190	0xb58b42df	-1.0375769e-06
191	0xbf468097	-0.7753996
192	0x3e1e6065	0.15466459
193	0x3e976022	0.2956553
194	0x3f02c729	0.51085144
195	0xbfafc07a	-1.3730614
196	0x3da710b5	0.081574835
197	0xb711a678	-8.6814325e-06
198	0xb71566d5	-8.9050345e-06
199	0x3e36ef88	0.17864811
200	0xb8cc9e9d	-9.757022e-05
201	0x3e28f539	0.16499795
202	0x3e693a7f	0.2277622
203	0xb633fd6c	-2.682059e-06
204	0x369fd6d7	4.76358e-06
205	0xc0c65b72	-6.1986628
206	0xb7020e72	-7.751967e-06
207	0x3e67a5fc	0.22621912
208	0xb6a32399	-4.8619227e-06
209	0xb5954756	-1.1122127e-06
210	0x36b9be32	5.5355713e-06
211	0x367c0356	3.7552868e-06
212	0x358c8da2	1.0472033e-06
213	0x36809708	3.8322796e-06
214	0x364a12b2	3.0111228e-06
215	0x3dcbf6ce	0.09959184
216	0x36d69603	6.3951607e-06
217	0x35f5faae	1.832688e-06
218	0xb9261c9e	-0.00015841654
219	0x3e354d6f	0.1770532
220	0x3f2e29c3	0.68032473
221	0x3fb8c89b	1.443622
222	0x35fc5a94	1.8801825e-06
223	0x3676aa5e	3.6756023e-06
224	0xbfcb020e	-1.5860002
225	0x3da13b3e	0.07872628
226	0xbebb909f	-0.36633775
227	0xb61bd445	-2.3220357e-06
228	0xb5ad322d	-1.2904108e-06
229	0xbe005bb7	-0.12534986
230	0xbdfdad6b	-0.123865925
231	0x3397f0bd	7.0752755e-08
232	0x3e9efab3	0.31050643
233	0x354903e7	7.4884014e-07
234	0x36c70f5d	5.9324507e-06
235	0x3703ea16	7.862711e-06
236	0x3d123580	0.035695553
237	0xb625457d	-2.4627363e-06
238	0x35164d17	5.5991535e-07
239	0xbee6b676	-0.45061082
240	0x35c39656	1.4572386e-06
241	0x364d70c3	3.0613016e-06
242	0x366ce9f6	3.5302924e-06
243	0x3dd7e308	0.1054135
244	0xbefa81b0	-0.4892707
245	0x355d2e88	8.239663e-07
246	0xb6ab08a6	-5.097204e-06
247	0xbf6d9c98	-0.9281707
248	0x3d5392fe	0.051653855
249	0x3e4f5403	0.20246892
250	0x3f0e3d56	0.5556234
251	0xbf8be953	-1.093058
252	0x376b2969	1.4016733e-05
253	0x3ee791ba	0.45228368
254	0xbda1f5fd	-0.07908247
255	0x347559dd	2.2850095e-07

model.6.bias f4 [3]
0	0x3cd529f0	0.026020974
1	0x3ce03d5c	0.027373008
2	0x3d2a810f	0.041626986
