models/best_model_right.pth (torch, 138092 bytes, 8 tensors)

model.0.weight f4 [128, 1]
00000000: 8150 3635 26d5 e1bd 1c20 6437 d214 e2b7
00000010: f15d e7b5 1a08 1637 eab7 b53d 5515 c635
00000020: 92e1 c834 d722 a1b7 2959 b337 5ce5 143a
00000030: 0247 97b8 acd3 8abe 13f6 2238 30c3 62be
00000040: 2171 94bd 7625 b63d 69fb 9a37 63f3 44b6
00000050: 8c81 9336 5a71 e4bd 5bef b73d 2e97 9538
00000060: 6b0e 29b4 334f a1bd 3645 2b3e b609 9fbf
00000070: 3cb8 4536 9da7 9fbd 09b2 93bd da87 9fbd
00000080: 4f0c b1b7 f717 bbb5 35bf cdb7 2ca8 f2b7
00000090: 034a dfbd 3c44 5f38 e407 c73d 3f0d 91bd
000000a0: be5e 40b8 b099 0f37 3804 debd 0f22 2b3e
000000b0: 7a17 2b3e cea8 9fbd a9fd 9138 4da3 ccbd
000000c0: df3b 55b8 56b3 e736 be15 99b6 e348 4938
000000d0: fcc3 5338 c60c edb6 d350 6d38 e1f6 a234
000000e0: 4fa9 c03d 6502 8f38 1f43 4437 eaeb a4be
000000f0: 7751 1db6 c92b 0b36 030c 5237 184a cfbd
00000100: 11a3 1938 cfda b5b7 507f 3f38 eb3b 58b5
00000110: 5d38 46b6 c0da 3637 739a 2a3e a71c 30be
00000120: 70e1 00b6 1eb6 e7b6 044c 8bb8 d3dc b03d
00000130: 071d 8bb8 f95e feb5 a8f7 29b8 393f feb6
00000140: e127 94bd feed 2738 58b1 ebbd 0fdc 2a3e
00000150: aad5 c73d 2e4e 6337 6cb8 c0be d808 a1bd
00000160: c750 d2bd 8fc4 17b8 2bfd 7838 94f4 ccbd
00000170: 1e41 21b7 dc92 9fbd fbad 2438 a6ed 21b6
00000180: f619 b03d 0a83 8bb7 3ca6 96bd b584 25b8
00000190: 3383 c1b7 1225 cd3d 4c4c 1037 ca0e 413e
000001a0: 24e8 8fb8 0c32 6335 339e 4538 22f8 63be
000001b0: d823 5038 dacd 01b8 f559 7eb8 2fc0 a0bd
000001c0: 3aee e7bd 334f ba3d 97b8 07b8 fe25 d8b6
000001d0: 1bd8 46b5 067c c938 e184 58b8 cd0d 97b8
000001e0: cf0e 3137 2fab 96b8 d7a0 8cb8 eaa0 18be
000001f0: f221 9737 d328 4fbf 391d 48b7 f56e 4cb6
6.791743e-07 -0.11026983 1.3597335e-05 -2.6950995e-05 -1.7238182e-06 8.942583e-06 0.088729694 1.4758358e-06
3.7417027e-07 -1.920892e-05 2.1379981e-05 0.0005679929 -7.213467e-05 -0.27114618 3.8852984e-05 -0.2214477
-0.0724814 0.08893864 1.8475303e-05 -2.9347946e-06 4.3960226e-06 -0.111544326 0.089812 7.133033e-05
-1.5744597e-07 -0.07876434 0.1672562 -1.2424839 2.9462526e-06 -0.077956416 -0.07211692 -0.077895835
-2.1105776e-05 -1.393956e-06 -2.4526942e-05 -2.892696e-05 -0.109027885 5.323089e-05 0.09718302 -0.070826046
-4.5864603e-05 8.559247e-06 -0.108406484 0.16712211 0.16708174 -0.07795869 6.961387e-05 -0.09992085
-5.0838917e-05 6.905214e-06 -4.5622864e-06 4.7990015e-05 5.0488845e-05 -7.0646374e-06 5.6580477e-05 3.035448e-07
0.09407293 6.8192174e-05 1.1698138e-05 -0.32211238 -2.3442242e-06 2.07381e-06 1.2519772e-05 -0.10121554
3.662991e-05 -2.1678772e-05 4.5656518e-05 -8.055346e-07 -2.9537107e-06 1.0898977e-05 0.1666048 -0.1719843
-1.9204708e-06 -6.9055377e-06 -6.6421955e-05 0.08635869 -6.633443e-05 -1.8952115e-06 -4.0523388e-05 -7.57715e-06
-0.07234169 4.003755e-05 -0.11508435 0.16685508 0.0975755 1.3548457e-05 -0.37640703 -0.07863015
-0.10269313 -3.6184265e-05 5.936359e-05 -0.10007587 -9.611509e-06 -0.07791683 3.926268e-05 -2.41292e-06
0.08598702 -1.6631111e-05 -0.073559254 -3.946266e-05 -2.3068487e-05 0.10016836 8.600833e-06 0.18853298
-6.862011e-05 8.463692e-07 4.7115795e-05 -0.22262624 4.9624447e-05 -3.094771e-05 -6.0642098e-05 -0.07849156
-0.11324735 0.09097137 -3.235842e-05 -6.4417245e-06 -7.407522e-07 9.607528e-05 -5.1622166e-05 -7.202812e-05
1.055347e-05 -7.184443e-05 -6.705679e-05 -0.14905134 1.801641e-05 -0.8092167 -1.1927733e-05 -3.0462954e-06

model.0.bias f4 [128]
00000000: 0a01 e3b5 b093 813d 29b5 78b8 f95d 59b7
00000010: dc71 90b4 4d09 4eb8 5104 78bd f536 23b8
00000020: eb1f 5bb5 d4af 57b8 3d12 82b8 9290 1aba
00000030: 85f4 5db8 9bf3 913d 9d26 4ab8 d88f 503d
00000040: 3864 943d d469 79bd e5e0 a3b7 5705 01b7
00000050: af35 63b8 1481 823d 9542 7dbd 3b2f 98b8
00000060: 88c0 5fb6 f39d 793d 1435 00bd 917b c53d
00000070: 98ca bdb7 000f 773d aa93 933d 5ede 763d
00000080: 08f2 66b8 88e1 bbb3 2761 46b8 f623 d1b6
00000090: 41f4 803d df67 6cb8 1969 6abd 22e4 873d
000000a0: c943 01b8 0bcd 15b7 ab17 843d 7649 11bd
000000b0: cc13 00bd db10 773d 2ef4 94b8 3c73 823d
000000c0: 748e 86b6 3cab efb6 a4e9 d2b4 eba4 93b8
000000d0: a4a3 81b8 9ae9 79b8 c22d 94b8 fd22 42b5
000000e0: b690 75bd e644 9bb8 9d4e 51b7 b16e c13d
000000f0: 4225 e0b3 2d88 54b8 1567 57b7 0bc1 7c3d
00000100: 219b 5fb8 2b8d 80b8 4e0b 61b8 223a c5b5
00000110: a0ba 05b4 cd48 42b7 ed7d 03bd 1675 833d
00000120: 0126 3fb4 b3c2 81b2 db9f 15b7 066e 8abd
00000130: 9696 4bb8 f91a 87b8 ee52 19b8 8fa6 8cb4
00000140: ed1a 943d 2cb0 4bb8 1342 853d b5cb ffbc
00000150: 1177 68bd e5f8 6eb7 e308 833d b531 793d
00000160: c2e8 8e3d 3e2b bbb7 0bf8 95b8 1a2d 7b3d
00000170: d9cc bbb4 5eef 763d 7cb5 78b8 ca0f ddb4
00000180: 8f76 88bd 9748 93b8 80db 893d af79 53b7
00000190: 38ac 1ab8 46ac 85bd d4cb 0db8 4016 47bd
000001a0: af2d c6b7 b056 1cb7 2b6c 63b8 6f89 513d
000001b0: ac05 5cb8 6c31 69b8 add8 80b6 b0c1 783d
000001c0: 98ce 833d 7de9 80bd 7b33 76b7 7dbc c7b3
000001d0: 2de2 c2b4 c5f7 eeb8 fd2d 61b8 d84d 96b8
000001e0: f254 d5b7 8a43 90b7 5ae5 feb6 edb1 723d
000001f0: 3300 42b8 3b35 b53d 0176 5cb8 f23b 6eb5
-1.691312e-06 0.06326997 -5.9296526e-05 -1.2956088e-05 -2.6904934e-07 -4.912289e-05 -0.06055099 -3.891341e-05
-8.1630304e-07 -5.1423747e-05 -6.20228e-05 -0.00058961764 -5.2918233e-05 0.07126542 -4.8196514e-05 0.05091843
0.07245678 -0.06089194 -1.9535839e-05 -7.6902425e-06 -5.4171014e-05 0.06372276 -0.061831076 -7.256722e-05
-3.3341657e-06 0.060941648 -0.03130062 0.09642709 -2.2624896e-05 0.06031704 0.07205899 0.06027066
-5.5061682e-05 -8.74889e-08 -4.729736e-05 -6.232872e-06 0.06296588 -5.6363522e-05 -0.057229135 0.0663531
-3.0819127e-05 -8.928832e-06 0.06449827 -0.03547045 -0.03126888 0.06031881 -7.102672e-05 0.063696355
-4.010095e-06 -7.1426894e-06 -3.9285544e-07 -7.0402246e-05 -6.18168e-05 -5.9583785e-05 -7.065713e-05 -7.2321546e-07
-0.05995246 -7.403809e-05 -1.2475674e-05 0.09444941 -1.043759e-07 -5.0671562e-05 -1.2838999e-05 0.061707538
-5.331182e-05 -6.12981e-05 -5.365471e-05 -1.4694563e-06 -1.2454484e-07 -1.1580251e-05 -0.032102514 0.06418817
-1.7802087e-07 -1.5106115e-08 -8.918311e-06 -0.067592666 -4.8539216e-05 -6.442326e-05 -3.6555277e-05 -2.619822e-07
0.07231698 -4.8563044e-05 0.06506743 -0.031225065 -0.056754176 -1.4243856e-05 0.063981794 0.06083842
0.06977989 -2.2312273e-05 -7.151075e-05 0.06132231 -3.498051e-07 0.060286872 -5.9296828e-05 -4.1175946e-07
-0.06663238 -7.023027e-05 0.067313194 -1.2604912e-05 -3.6876852e-05 -0.06526999 -3.380685e-05 -0.048605204
-2.3624712e-05 -9.318508e-06 -5.4221757e-05 0.051156458 -5.245737e-05 -5.5597557e-05 -3.8399216e-06 0.06073159
0.06435889 -0.06294534 -1.4674729e-05 -9.3009454e-08 -3.629988e-07 -0.00011394875 -5.368701e-05 -7.167057e-05
-2.5431134e-05 -1.7197588e-05 -7.59649e-06 0.059251714 -4.625339e-05 0.088480435 -5.2561987e-05 -8.874914e-07

model.2.weight f4 [128, 128]
00000000: a232 bf36 f702 38b6 9761 81b6 d095 6bb6
00000010: a4f7 c336 df62 bb36 79bc 9a35 e62c 89b6
00000020: 839e abb6 dc03 3d35 40ba 1b36 be84 d8b6
00000030: 82f1 8436 ffae 9c35 9c8d bb36 6f5e d234
00000040: 2d5e 81b6 d9dd 0f36 b189 a135 0413 dbb6
00000050: 60dd 9c35 92b5 d534 1d8d b935 ccf7 77b3
00000060: a684 94b6 3456 88b6 8fe8 1ab6 017c 4c36
00000070: 57fb adb5 5715 23b6 8140 2836 0ab1 2eb4
00000080: d288 96b5 e657 2036 481b 9936 59cb e1b5
00000090: c9cf 2cb6 84e3 a4b5 42fe d936 3dd1 8036
000000a0: dc01 6136 0fd6 8fb5 08c2 dbb6 22c6 9f36
000000b0: 7763 bab6 57e2 3e35 9992 1336 62ea 7ab6
000000c0: 650e 95b4 427b 1cb5 5fb5 9d35 ff63 61b6
000000d0: e14e cfb6 c086 48b5 e8a5 7935 5343 31b4
000000e0: c259 a836 e56a 4736 378a 56b6 04fa 9535
000000f0: 80ae d036 cbb5 9ab6 5e6c 3a36 1748 c336
00000100: 0a0d b1b5 76ac 8cb6 3c70 b0b6 3cd7 3cb5
00000110: 82c6 96b6 039a 49b6 bda8 36b6 55db c036
00000120: f0e6 8f36 6bd5 d6b4 78a6 d436 302c 43b6
00000130: 560a 1db5 415c 93b6 37f6 9bb6 82ca a1b6
00000140: c5d7 bab6 0f75 46b6 f165 c935 e5c1 c8b6
00000150: 496a d4b6 a5e1 cab6 c58a 3f36 4419 a5b5
00000160: 3402 b2b6 4ac6 c636 5ea0 4436 67ca 3bb6
00000170: f6cd 8e36 9697 9935 2adf 4336 7673 a535
00000180: da5d 6ab4 7e5f 1935 7f45 55b6 b65a 8eb6
00000190: 7859 97b6 e895 8436 3326 3db6 24f6 dbb6
000001a0: 229a ccb2 e943 b6b4 2941 61b5 318b 1936
000001b0: 9e4b 7636 2054 67b6 d94a a536 058a 93b5
000001c0: 3d0e a536 2940 d7b6 0411 33b6 8830 db36
000001d0: 0044 3d36 2b14 c2b6 ff1b 61b5 ab17 9f36
000001e0: 6702 4236 8421 a136 174d 03b6 e1cd beb6
000001f0: ba16 a336 9545 aab6 d0fd 9db6 0a9d 5eb6
00000200: ec43 0636 c43c 1638 76bd bfb6 f5d0 6536
00000210: c2f3 2d35 1322 4bb6 d297 6abe 49d0 d736
00000220: 0b73 6fb6 40b5 9136 f670 c936 a77f bd39
00000230: b91b aeb6 d46e 1d38 ad7b 8236 dda4 59b7
00000240: c1ab 4d3d 85b7 70be a609 a2b7 83ce 5b36
00000250: a94d b636 b32c de37 3f2e 7cbe 85a1 9036
00000260: c020 f335 200b c1be 1f0b a9ba 541c 1f37
00000270: d534 8d36 514d b9be 0cdc 483d a4c2 b8be
00000280: b675 7535 894a f8b5 645a 3bb6 97f4 c8b6
00000290: 2f10 f837 421f e8b5 dd6c 30bd 022f 98bd
000002a0: 3a30 3136 7d11 aeb7 0788 d137 74a6 36bb
000002b0: 0d24 aaba b556 b9be 281c ebb5 6ece 92c0
000002c0: 3a4c 7fb6 c494 83b7 cb0a 91b6 e364 b636
000002d0: 21e7 d635 2143 a337 fb99 4539 577b 45b6
000002e0: 2ad6 ddbd 8bf5 85b6 c8a2 a9b7 78b7 ea37
000002f0: 3c5f 77b6 80bf 19b6 452e d1b7 ac0b 8837
00000300: fd45 82b6 9d71 8a36 247a 2735 05e2 2db5
00000310: a893 2eb6 833a c7b7 307e c6ba d60a deb6
00000320: 8a1f 2036 791f 9236 7627 b636 67d8 e7be
00000330: e77d d535 d6fe 9e36 2504 0236 fe25 5e36
00000340: c802 4c3d db97 4736 99fc 1738 55f6 9cba
00000350: 115c 2fbd fc19 cbb7 7844 9635 43af bfbe
00000360: 4fd7 f5bf f3f8 38b6 af0c dc38 5d09 10c0
00000370: b259 14b5 ce01 b9be a83b aab6 18d5 d435
00000380: b1b6 e2be 8c6a d3b5 c583 49bd ec0d d536
00000390: 7d44 a436 b7a4 c5bd cb46 b535 416a 1abc
000003a0: 26a4 d0b6 2d3c 55b6 e98a 9db5 c2cb 57b6
000003b0: 7082 d036 81f2 d0b6 f700 4bb6 4e5b bebe
000003c0: ae87 cb37 1bf0 81be 794c dab6 3131 48b7
000003d0: ebaa 8db6 f3af 5539 0e7c 9a36 09a7 3436
000003e0: 0c05 a6b6 09ba 8db5 a4e0 27b6 7b10 9637
000003f0: 3b2e c1b6 8905 c3b6 d7a6 9436 581d 9136
5.698138e-06 -2.7419862e-06 -3.8558605e-06 -3.5104931e-06 5.840282e-06 5.5845444e-06 1.1528747e-06 -4.088145e-06
-5.1146503e-06 7.04136e-07 2.3205212e-06 -6.452755e-06 3.9620218e-06 1.1673836e-06 5.58952e-06 3.9184258e-07
-3.855463e-06 2.1437793e-06 1.2035508e-06 -6.5289223e-06 1.1687334e-06 3.9806451e-07 1.3824643e-06 -5.773454e-08
-4.426186e-06 -4.063151e-06 -2.3083155e-06 3.0470549e-06 -1.2962654e-06 -2.4301314e-06 2.5071497e-06 -1.6269419e-07
-1.1215691e-06 2.3893022e-06 4.5629313e-06 -1.6822988e-06 -2.5750944e-06 -1.2285168e-06 6.4967035e-06 3.839056e-06
3.3528695e-06 -1.071663e-06 -6.549297e-06 4.761635e-06 -5.554811e-06 7.1109883e-07 2.1990038e-06 -3.7389332e-06
-2.7763886e-07 -5.829389e-07 1.1750197e-06 -3.3585818e-06 -6.1782634e-06 -7.4701893e-07 9.3001154e-07 -1.6508902e-07
5.0172393e-06 2.9715532e-06 -3.1968937e-06 1.1174129e-06 6.2191975e-06 -4.610721e-06 2.7779238e-06 5.8198452e-06
-1.3191323e-06 -4.1924022e-06 -5.2582745e-06 -7.0348665e-07 -4.4934577e-06 -3.004098e-06 -2.7218332e-06 5.7475795e-06
4.2886168e-06 -4.0015888e-07 6.337472e-06 -2.9082985e-06 -5.85021e-07 -4.391681e-06 -4.648023e-06 -4.821749e-06
-5.568351e-06 -2.9572436e-06 1.5005336e-06 -5.9830368e-06 -6.3304656e-06 -6.0463376e-06 2.8541992e-06 -1.2300811e-06
-5.30507e-06 5.9239437e-06 2.9299622e-06 -2.7982985e-06 4.255907e-06 1.1443506e-06 2.9187163e-06 1.2327062e-06
-2.1827091e-07 5.71359e-07 -3.1779925e-06 -4.24249e-06 -4.510566e-06 3.951358e-06 -2.818543e-06 -6.555363e-06
-2.3818817e-08 -3.3949553e-07 -8.391385e-07 2.2879797e-06 3.6700872e-06 -3.447065e-06 4.9260966e-06 -1.0992522e-06
4.9190407e-06 -6.4149685e-06 -2.6682983e-06 6.5323584e-06 2.8202776e-06 -5.7839984e-06 -8.385977e-07 4.7413246e-06
2.890965e-06 4.8020756e-06 -1.9565393e-06 -5.6864087e-06 4.8604243e-06 -5.074495e-06 -4.7085123e-06 -3.3171987e-06
2.0007092e-06 3.581938e-05 -5.7142997e-06 3.4245288e-06 6.4802236e-07 -3.026919e-06 -0.22909477 6.431747e-06
-3.568074e-06 4.342437e-06 6.003417e-06 0.00036143998 -5.1888314e-06 3.7534934e-05 3.8886997e-06 -1.2972593e-05
0.050212625 -0.23507507 -1.9316398e-05 3.2753749e-06 5.4330635e-06 2.6485277e-05 -0.24627016 4.3103378e-06
1.8114442e-06 -0.377038 -0.0012896991 9.483734e-06 4.208278e-06 -0.361918 0.049037978 -0.36086
9.1440904e-07 -1.8499132e-06 -2.7917786e-06 -5.9889385e-06 2.957144e-05 -1.7294444e-06 -0.04307257 -0.07430841
2.6403127e-06 -2.075056e-05 2.4978084e-05 -0.002787021 -0.0012980715 -0.36198965 -1.7517059e-06 -4.587699
-3.804233e-06 -1.5685691e-05 -4.322593e-06 5.4357674e-06 1.601151e-06 1.9462374e-05 0.00018844746 -2.942708e-06
-0.10831864 -3.992294e-06 -2.022217e-05 2.7980408e-05 -3.6861302e-06 -2.2910244e-06 -2.4936287e-05 1.6217899e-05
-3.8824496e-06 4.125947e-06 6.2390086e-07 -6.4776424e-07 -2.6013968e-06 -2.3749895e-05 -0.0015143808 -6.617377e-06
2.3860216e-06 4.354803e-06 5.4286165e-06 -0.4528229 1.5906379e-06 4.7384337e-06 1.9373922e-06 3.3102692e-06
0.04980734 2.9741702e-06 3.6236455e-05 -0.0011975268 -0.04281241 -2.4211586e-05 1.1195798e-06 -0.37438402
-1.9206332 -2.7563044e-06 0.0001049278 -2.2505715 -5.526482e-07 -0.3613419 -5.0733397e-06 1.5857249e-06
-0.44280007 -1.5751734e-06 -0.04919793 6.3495154e-06 4.895554e-06 -0.096505575 1.3506154e-06 -0.009424747
-6.2179924e-06 -3.17745e-06 -1.173784e-06 -3.21561e-06 6.214068e-06 -6.227114e-06 -3.0249919e-06 -0.37179035
2.4262667e-05 -0.25378498 -6.505809e-06 -1.1932382e-05 -4.222025e-06 0.00020378809 4.6039995e-06 2.6919317e-06
-4.947773e-06 -1.0559462e-06 -2.5015697e-06 1.7889068e-05 -5.75723e-06 -5.8120972e-06 4.4301664e-06 4.324753e-06

model.2.bias f4 [128]
00000000: 860e a8b4 ea79 673d b066 90b7 f8d1 af3d
00000010: 4fd9 a23c 18e4 48b7 f36c dbb6 723c 39b9
00000020: 9ef1 b5b6 a1b5 f0b7 18c6 a13d 8ee4 9bb6
00000030: 5565 a73d 2905 d0b7 4d6e d53c 1aa8 83b8
00000040: f40c b03d bac7 29b7 146a 81b8 f7cb a03d
00000050: 065c c3ba 2b0b 3db8 00c6 73b6 686f d9b6
00000060: 1fb8 e1b7 1a9d 08b8 85c0 763d d34b cd34
00000070: 45e5 14b6 b31f afb6 f709 d23d 3d09 583d
00000080: 7011 0e37 10d4 0eb8 b9ff 91b5 f8f0 15b8
00000090: d69c c1ba 387d 98b6 2885 23b8 5afe e2b6
000000a0: 5084 963d 165c c03d b425 8ab8 c076 12b7
000000b0: 894b 7db7 643a 96b8 3e6e 743d b348 cfb6
000000c0: f3c5 c8b6 0146 0eb8 4182 c5b6 bac4 21b7
000000d0: 9933 96b6 18d6 0f3d bc56 a5b6 1dc9 50b8
000000e0: 52c8 0eb8 3caa b0b6 dc75 0eb7 a5cf 4235
000000f0: ce8e abb9 0446 d93c ef97 85bd 7fd9 3d3d
00000100: 4845 59bb c8b2 94bb ff48 04b8 30bc a63d
00000110: 3e16 93b7 dd17 b3b6 ed17 9db8 fb7d d3bd
00000120: 364f 83b8 ccaf d5b6 8071 38b5 bdf9 75b7
00000130: e5a0 58b6 4c26 25b6 1c8a 5f3d 3211 bdb9
00000140: 6001 19b8 54ac f3b6 524c 52b6 08f0 ef3b
00000150: a289 b1b8 7176 b5b6 3dd7 a83c 86c7 48b8
00000160: cb91 9abd a8ce 7eb7 ce83 9cb5 dc6d dbb6
00000170: c947 45b7 23a0 a0b6 24f2 0b3d 6a32 5bb8
00000180: 437a fab6 a00b 6c3d 30e5 843d 74fd 803d
00000190: 6c0c 3ab6 9e33 ccb6 3eb3 763d bfcb 53b8
000001a0: e407 97b6 0062 b2b6 85a7 bcb8 537e 80b6
000001b0: fdbf 0db6 4649 ca3b 3da1 0f36 a68e 9fb5
000001c0: 78df 02b7 efbb f2b7 69b6 743b b442 c134
000001d0: 9041 09b6 b3fd c0ba 0132 2734 8a4f a7bb
000001e0: 01bd 5bb6 cd0f e435 28a9 533c 7f15 f6b7
000001f0: cf8c c6b6 7b25 fcb5 f2fe 1a36 87f2 eeb7
-3.1303006e-07 0.05651275 -1.7213955e-05 0.0858497 0.019879011 -1.1974036e-05 -6.539392e-06 -0.00017665492
-5.4223483e-06 -2.8694807e-05 0.078991115 -4.6459672e-06 0.081736244 -2.4797935e-05 0.026053572 -6.277878e-05
0.085962206 -1.0119687e-05 -6.170958e-05 0.07851403 -0.0014904744 -4.5071512e-05 -3.6325073e-06 -6.4800734e-06
-2.6907828e-05 -3.257124e-05 0.060242195 3.8239395e-07 -2.218717e-06 -5.2190967e-06 0.10255807 0.052743185
8.4679195e-06 -3.4052937e-05 -1.0877767e-06 -3.5748788e-05 -0.0014771472 -4.5445304e-06 -3.898624e-05 -6.7649353e-06
0.07349455 0.09392564 -6.5873755e-05 -8.729927e-06 -1.5097562e-05 -7.1634335e-05 0.059675448 -6.177544e-06
-5.983509e-06 -3.3920634e-05 -5.886221e-06 -9.642152e-06 -4.476355e-06 0.035116285 -4.9274804e-06 -4.9778366e-05
-3.4042e-05 -5.2650266e-06 -8.491301e-06 7.2572794e-07 -0.0003272206 0.026522644 -0.0652312 0.04635
-0.0033152867 -0.004537914 -3.1539235e-05 0.08141363 -1.7534123e-05 -5.3373938e-06 -7.4908e-05 -0.10326763
-6.261321e-05 -6.36836e-06 -6.8710506e-07 -1.4661285e-05 -3.228016e-06 -2.4609208e-06 0.05457507 -0.000360617
-3.6479323e-05 -7.262026e-06 -3.1336863e-06 0.007322315 -8.465654e-05 -5.4080087e-06 0.020610446 -4.7869537e-05
-0.07547339 -1.5187696e-05 -1.1661266e-06 -6.539498e-06 -1.1758829e-05 -4.787014e-06 0.03416647 -5.226062e-05
-7.4648137e-06 0.057628274 0.064890265 0.06298342 -2.772339e-06 -6.085683e-06 0.060229532 -5.0496074e-05
-4.5010693e-06 -5.316222e-06 -8.9957415e-05 -3.8294033e-06 -2.112239e-06 0.0061732857 2.1402514e-06 -1.1887939e-06
-7.800634e-06 -2.8936161e-05 0.003734017 3.5997584e-07 -2.0452753e-06 -0.0014724046 1.5571278e-07 -0.0051059173
-3.2743558e-06 1.6991922e-06 0.012918748 -2.9335495e-05 -5.917252e-06 -1.8786371e-06 2.3096186e-06 -2.8484747e-05

model.4.weight f4 [128, 128]
00000000: 9486 a334 89cd 4bb6 66e7 9eb6 7d44 25b6
00000010: 9d59 bdb6 330f d0b5 bbd4 0936 b8e6 d1b5
00000020: 1ad4 a3b6 3e2e ce36 0f8c c3b6 7b69 93b6
00000030: 3a8a 0036 6ce2 0836 5659 c536 b057 0536
00000040: e307 3435 752b 0a35 f3a5 fab4 59b1 ee36
00000050: c53d dfb6 83a7 6336 3537 9e36 36f5 8836
00000060: e494 31b5 ab18 d5b6 50c5 b3b6 eb0c 04b7
00000070: 9954 c0b6 1621 69b6 bf81 f1b6 3172 27b6
00000080: 9b04 0bb7 cb03 0eb7 0b53 3136 2067 fdb5
00000090: 138d 3436 096b 3636 45cc 57b6 b072 b3b6
000000a0: 1a07 efb6 fdfb dfb6 e50f ce35 8f28 c4b6
000000b0: 0f92 26b6 ded4 01b6 4474 c7b5 8e21 0ab6
000000c0: 6b26 eab6 b67e 19b7 44f5 94b6 46aa 7fb6
000000d0: 7f0f 49b6 9445 6735 faaa ae36 9ca0 2036
000000e0: 4967 adb6 a84e 1fb7 440a ebb5 12d2 af36
000000f0: ef63 8a36 fc7b a535 92f5 99b6 b353 5236
00000100: a008 09b7 1982 a1b6 d9f8 af36 f9a7 e636
00000110: 798e 3136 9f28 14b7 9d4a f9b5 9226 9db6
00000120: bbba db36 6d39 aa35 c5c6 9c35 a808 95b6
00000130: 2069 35b7 ec16 9c35 f33a c1b6 2e79 c9b6
00000140: c31c 5e36 7a5e c835 f0dd bf36 3e2e b936
00000150: 3929 af36 3fed ef35 3c68 de35 31bc b1b6
00000160: ae1e a835 c389 1034 9354 fcb6 8270 2f36
00000170: fc96 c6b6 192a a336 2f69 2f36 468c db36
00000180: 2239 ddb6 4d60 9ab6 54c0 33b7 5f51 6435
00000190: b94c c4b6 cc89 14b6 4498 32b6 ad93 a4b6
000001a0: 82c0 88b6 efe6 c5b6 09c7 d4b6 cb8d 39b7
000001b0: 6cbb 1735 db09 a6b6 2090 1bb6 aad5 6e35
000001c0: ab97 8136 69ac 4bb6 7675 25b6 33f1 d8b6
000001d0: d7c2 cab6 2b22 b536 0555 b6b5 ccc3 0ab5
000001e0: 40f9 d7b6 053a 75b6 9c05 48b6 8a8f 0cb7
000001f0: 46ea 5cb5 46fb 5ab4 0c32 18b7 7364 cfb5
00000200: 17fc 1736 76d6 8fb6 718e b8b5 15b8 cdb7
00000210: bf09 81b7 4f94 cd35 30a2 db36 1fe7 2ab6
00000220: 6c19 9536 e863 9ab6 c311 4a37 a22a c036
00000230: 24e9 f5b7 3b1d 45b6 c246 9fb3 9bf7 3f36
00000240: 2c59 b6b6 2064 3237 a282 a1b6 3437 11b7
00000250: abf2 3036 ec28 d3b6 70b3 d735 b7ba d836
00000260: 0905 24b6 96da 7535 9b8b 90b6 bd16 65b6
00000270: 4161 36b7 efdf 9fb6 3d95 03b7 29e4 bfb6
00000280: c10e 63b5 3c37 e436 0f56 ae36 8052 1936
00000290: 698d 1bb7 9ec6 8435 43cf 3635 538d bd36
000002a0: 8662 3cb7 948c d5b6 08a1 d735 a98a f3b5
000002b0: 55ba 8ab5 0f6c ab34 9417 4d35 130f 34b5
000002c0: 8d81 8b35 43e0 fa35 4477 9db6 4277 1fb6
000002d0: 876e c4b6 cfb4 9cb5 088c 1136 21f5 2636
000002e0: cbf4 14b5 a215 35b6 3f5a 04b6 86c9 1635
000002f0: 2952 0c36 5667 5eb7 873b 34b7 f1a9 bab6
00000300: ea0b 10b7 0ca9 05b6 e086 6736 bd0b 8bb7
00000310: dbaf 0336 b63c 8835 1ede 0db7 c1a1 35b6
00000320: f13e abb6 7d84 52b6 2ae9 bcb6 df39 b6b6
00000330: d4c7 ff35 cb0d 8536 b513 8db7 b035 7535
00000340: d5f1 1936 8b89 dd36 0b93 2a36 6270 6db7
00000350: d6e1 0eb6 728e cbb6 db66 0ab7 0f70 c2b6
00000360: 7c34 25b7 fd28 5ab6 2bde 98b6 132a d436
00000370: 18a7 7cb6 5296 ccb6 c03e d5b2 76a7 aab6
00000380: f2e6 4cb6 48d4 b3b6 87ae 31b7 ddad 30b7
00000390: 5782 d8b6 3ed7 b536 5d1e 82b7 c208 d936
000003a0: 12c4 3937 a816 a136 eb6c 07b6 b055 5db6
000003b0: 4bdf dbb6 7219 2bb7 461f 1f35 1ff8 adb6
000003c0: 2ebe 25b4 fa97 d8b6 aca2 02b7 6541 bab6
000003d0: 1c93 d036 5ce9 6d36 bb41 0837 eae9 1cb6
000003e0: 969c 2b36 9b6a 70b5 b1ab 5f36 439c 8f35
000003f0: 49c0 7235 a6f6 7ab6 2cba 9bb7 13cd 9fb6
3.0459034e-07 -3.0368994e-06 -4.7357053e-06 -2.4626781e-06 -5.6430713e-06 -1.5501631e-06 2.0538416e-06 -1.5638861e-06
-4.8824704e-06 6.1446617e-06 -5.827758e-06 -4.393221e-06 1.9153945e-06 2.0397374e-06 5.8814576e-06 1.9869585e-06
6.70667e-07 5.1472244e-07 -4.6686873e-07 7.1135987e-06 -6.653109e-06 3.392314e-06 4.715194e-06 4.081662e-06
-6.61543e-07 -6.3507664e-06 -5.357586e-06 -7.870821e-06 -5.7318944e-06 -3.4738964e-06 -7.197464e-06 -2.4951407e-06
-8.286118e-06 -8.464743e-06 2.6423393e-06 -1.8879982e-06 2.6904206e-06 2.7182416e-06 -3.2156397e-06 -5.347967e-06
-7.123582e-06 -6.675253e-06 1.5352822e-06 -5.845977e-06 -2.4820945e-06 -1.9346403e-06 -1.4860493e-06 -2.0583134e-06
-6.978216e-06 -9.149013e-06 -4.4392964e-06 -3.8097073e-06 -2.9960354e-06 8.6155455e-07 5.2055084e-06 2.3935345e-06
-5.1678257e-06 -9.495452e-06 -1.7511852e-06 5.239862e-06 4.1243543e-06 1.2329542e-06 -4.5883435e-06 3.1341158e-06
-8.1678445e-06 -4.8133193e-06 5.244376e-06 6.8740887e-06 2.6457985e-06 -8.830945e-06 -1.8573661e-06 -4.683455e-06
6.548447e-06 1.26827e-06 1.1680755e-06 -4.4415538e-06 -1.0812917e-05 1.1629577e-06 -5.758711e-06 -6.004374e-06
3.309732e-06 1.4928657e-06 5.7180805e-06 5.518813e-06 5.2202054e-06 1.7875935e-06 1.6570625e-06 -5.2969194e-06
1.2525904e-06 1.3461162e-07 -7.520031e-06 2.614252e-06 -5.9184367e-06 4.8626794e-06 2.6138257e-06 6.5430386e-06
-6.5929644e-06 -4.6007685e-06 -1.0714011e-05 8.505503e-07 -5.850187e-06 -2.2133927e-06 -2.6612697e-06 -4.9047726e-06
-4.0755267e-06 -5.8979417e-06 -6.341263e-06 -1.1059873e-05 5.652462e-07 -4.948333e-06 -2.3180692e-06 8.897283e-07
3.862156e-06 -3.0349713e-06 -2.4655287e-06 -6.465381e-06 -6.0427515e-06 5.398198e-06 -1.3584801e-06 -5.169393e-07
-6.436516e-06 -3.6541617e-06 -2.9805587e-06 -8.378071e-06 -8.22973e-07 -2.0394245e-07 -9.071558e-06 -1.5451936e-06
2.264749e-06 -4.2866986e-06 -1.3750524e-06 -2.4523624e-05 -1.5382537e-05 1.5316854e-06 6.5455897e-06 -2.5466504e-06
4.4435055e-06 -4.6011883e-06 1.2044274e-05 5.727009e-06 -2.931484e-05 -2.9372302e-06 -7.416885e-08 2.8605343e-06
-5.4344036e-06 1.0632939e-05 -4.8133816e-06 -8.6555265e-06 2.6367295e-06 -6.293054e-06 1.6070971e-06 6.459038e-06
-2.4440835e-06 9.1587697e-07 -4.3077866e-06 -3.4136895e-06 -1.0870689e-05 -4.7646386e-06 -7.842956e-06 -5.718805e-06
-8.458556e-07 6.8013596e-06 5.1956226e-06 2.2846798e-06 -9.271645e-06 9.892572e-07 6.810189e-07 5.6490912e-06
-1.12286125e-05 -6.36426e-06 1.6065615e-06 -1.8145266e-06 -1.0336031e-06 3.1929855e-07 7.640276e-07 -6.707716e-07
1.0394011e-06 1.869172e-06 -4.692849e-06 -2.3762263e-06 -5.8541223e-06 -1.1675528e-06 2.1688193e-06 2.4878611e-06
-5.5490517e-07 -2.6983694e-06 -1.9722063e-06 5.617261e-07 2.090945e-06 -1.3256291e-05 -1.0742696e-05 -5.5630157e-06
-8.585843e-06 -1.9916943e-06 3.450019e-06 -1.6575557e-05 1.9622883e-06 1.0150459e-06 -8.455971e-06 -2.7065255e-06
-5.1035245e-06 -3.1369557e-06 -5.6299805e-06 -5.4307598e-06 1.9057138e-06 3.9653146e-06 -1.6817687e-05 9.134774e-07
2.2939541e-06 6.6023254e-06 2.5417564e-06 -1.4152467e-05 -2.1291103e-06 -6.0664543e-06 -8.249389e-06 -5.794696e-06
-9.846986e-06 -3.250839e-06 -4.5558168e-06 6.3229904e-06 -3.7648188e-06 -6.0971734e-06 -2.4824999e-08 -5.08589e-06
-3.0532797e-06 -5.3593285e-06 -1.0590657e-05 -1.0530898e-05 -6.452475e-06 5.419278e-06 -1.5511347e-05 6.4681235e-06
1.10725105e-05 4.8008114e-06 -2.0179966e-06 -3.2981443e-06 -6.5527033e-06 -1.0198319e-05 5.9277625e-07 -5.184687e-06
-1.543601e-07 -6.454994e-06 -7.786479e-06 -5.550845e-06 6.216009e-06 3.5451585e-06 8.121536e-06 -2.3381967e-06
2.557213e-06 -8.95621e-07 3.3329527e-06 1.0699808e-06 9.0431837e-07 -3.7396471e-06 -1.8564133e-05 -4.762443e-06

model.4.bias f4 [128]
00000000: ef0b f5b6 8d6f 93b6 bfd8 873d 9162 edb8
00000010: 1297 efb6 70cb 05b6 4b45 e7b6 6d6a 8035
00000020: ec7e a3b6 306e 833d 3d77 9235 0797 5e3d
00000030: c22f 23b8 3cab 563d b0f9 333d d6e9 04b7
00000040: 1bdd f93d 420f 73b8 38a4 1e32 f8d3 8e3d
00000050: 70c4 ecb4 d550 143e ccd7 8fbc d251 aab6
00000060: c301 043d 570b 0036 c4b1 06b8 207b 14b6
00000070: 5bc9 0c3e a805 18b7 6095 05bc da8b e6b5
00000080: bfa2 cdba 1182 f5b6 66f3 873d 9e64 263d
00000090: 2b6a 06b7 9309 06b6 2c00 1cb7 de63 0135
000000a0: f0b2 aabd 7e4a bdb6 66ad 40b7 31de 753d
000000b0: 78b7 5cbc d664 17b6 dc22 05b8 9ec9 b6b6
000000c0: e8ce 003e 683e f7b6 34b5 8ab5 f26b d3b6
000000d0: c595 73b7 94d1 153e 323f dbb7 78e9 c6b6
000000e0: 7899 a6b5 d9c4 34bd 9606 31b7 9e8b 07b7
000000f0: 8ec6 363d e54d 01b4 6be5 8cb6 ccb1 30b8
00000100: dcb2 853c f264 0d3d f012 423d 3228 ee35
00000110: 12f2 a23d 983d 3bb8 7415 32b7 582c a9b6
00000120: 3a75 093d 1cd2 a93d 68c7 d4b6 8560 023e
00000130: 332b 063d 0d57 da34 303f 75b9 a6c2 bb3d
00000140: cde4 80b6 618f 883c fc0d d5b6 4a9d fcb6
00000150: 4f3b 8f3d cfc9 e8b6 6342 c0b6 deea 8eb7
00000160: 083d afba 224b dcb6 dc94 2cb4 3a7c 643d
00000170: b86b 1e3d c015 a83d fda3 463e 25eb ba3c
00000180: a8d6 ebbb b024 14b6 97a4 4f3d 6b75 a0b8
00000190: b9cb bfb7 bad8 81b8 de7c 2db7 a717 d93d
000001a0: 6f9c 82b6 f3f8 7d3d 93f9 f2bb 897c 88b8
000001b0: 6ef0 92b6 937c f1b6 709b f03c 823f 923d
000001c0: 0840 993d 2599 3ab6 6b8f 5f3c 765e d5b5
000001d0: cd7d 39b9 c34d 9e35 d182 cab6 c155 feb6
000001e0: 9279 833d 2666 e3b6 59fc 703d 1e22 593b
000001f0: c6c3 36b7 cb0e 433e 5132 0cb7 5606 13b7
-7.3029582e-06 -4.3939276e-06 0.06633138 -0.000113194 -7.140342e-06 -1.993696e-06 -6.8924032e-06 9.567717e-07
-4.872554e-06 0.06417501 1.0912551e-06 0.05434325 -3.8906706e-05 0.052409396 0.043939292 -7.922257e-06
0.12200376 -5.7949925e-05 9.2341494e-09 0.069740236 -4.4101353e-07 0.1448396 -0.017558955 -5.07592e-06
0.032228243 1.9080087e-06 -3.2113647e-05 -2.2125387e-06 0.13748686 -9.061223e-06 -0.00815329 -1.7177038e-06
-0.0015688761 -7.3167107e-06 0.066382214 0.0406233 -8.011742e-06 -1.997313e-06 -9.298365e-06 4.820157e-07
-0.08334911 -5.641311e-06 -1.1484464e-05 0.06002635 -0.013471477 -2.2559448e-06 -3.1742136e-05 -5.447494e-06
0.12578928 -7.3684387e-06 -1.0334538e-06 -6.3008565e-06 -1.45188e-05 0.14630729 -2.6136262e-05 -5.928039e-06
-1.2412629e-06 -0.04413304 -1.05515555e-05 -8.079134e-06 0.04462295 -1.2042399e-07 -4.199033e-06 -4.2127256e-05
0.016320638 0.034520097 0.04738134 1.774408e-06 0.079563275 -4.4641638e-05 -1.0614622e-05 -5.041755e-06
0.03355906 0.08292028 -6.3413063e-06 0.12732132 0.03275604 4.0669002e-07 -0.0002338856 0.091679856
-3.841333e-06 0.01666993 -6.3495227e-06 -7.528496e-06 0.06993734 -6.9376324e-06 -5.7297743e-06 -1.7037088e-05
-0.0013369629 -6.5652575e-06 -1.6072903e-07 0.055782534 0.038676947 0.082072735 0.19398494 0.022817204
-0.00719722 -2.2075074e-06 0.050694074 -7.651265e-05 -2.286384e-05 -6.191568e-05 -1.0340676e-05 0.106002145
-3.892513e-06 0.062004995 -0.0074150055 -6.508182e-05 -4.3791288e-06 -7.196862e-06 0.029370993 0.071410194
0.07482916 -2.7805302e-06 0.013645033 -1.5897228e-06 -0.0001768984 1.1794549e-06 -6.035298e-06 -7.579773e-06
0.06419672 -6.777019e-06 0.058834407 0.0033131908 -1.0893627e-05 0.19048612 -8.3563655e-06 -8.763358e-06

model.6.weight f4 [3, 128]
00000000: 2144 a935 a06f 40b6 4b88 bb3e d70f 8bba
00000010: 7e42 d135 cad1 1b37 0d16 b735 28a4 05b6
00000020: 9f9f d535 4413 d03e 7276 5136 bb6e 313e
00000030: 2c11 73b7 7c79 223f bb81 0cbf 8fda 8cb6
00000040: bb52 14be b0a4 a936 7565 c536 d2e5 81be
00000050: 783b 07b5 0b21 7fbe d72e 7abe ff37 81b5
00000060: d817 b23e cded 0db7 bfcc 07b8 a58f 5e36
00000070: f14e 68be 4af8 5236 bdec 803f 7cb6 64b6
00000080: 11d7 26be cf1b 09b7 3f6b f3be e32f 35bf
00000090: af55 f736 952e c636 3409 8836 4d6f 0db6
000000a0: 2449 f03e 8779 2334 2d0d 85b5 2a58 1b3f
000000b0: 9f2d c5be daf3 4534 17a7 b0b6 c376 ddb6
000000c0: 8bd7 233d b19e 07b6 f2b3 93b7 d20f 4cb6
000000d0: 5f37 0c37 146f 05bf acef 3036 55da 83b6
000000e0: b765 85b6 a821 4bbe 463d 2b36 1a19 a2b6
000000f0: 38ee 21bf d06a e234 1633 17b4 1955 05b7
00000100: b5e0 22c0 48d9 a2be cd1c 04bf b4f8 d335
00000110: d2a3 98bb fb38 18b8 3007 31b8 a53b a436
00000120: 9791 a3be 306e 943e 70f8 16b7 5854 c43c
00000130: ab03 5c3f 3815 78b6 3753 8439 87ac 9dbf
00000140: 3e93 8eb6 66e1 d5be 2ff4 2cb5 15c7 d7b4
00000150: e60c 743f 342c 21b6 b9f4 5ab6 4b9d 60b7
00000160: 2b21 abba 5d0e 7135 3a2f b8b5 f80f 213f
00000170: e290 673f b349 173f 57ae 4dbe 7736 333f
00000180: c1dd c73f dee5 a4b5 7df7 243f 28f1 4ab6
00000190: a5d5 df36 0bda 9bb6 dff0 1837 7883 9dbf
000001a0: eefd 1bb7 7b86 67be 3348 893f c2d1 59b8
000001b0: a7c4 edb6 7606 0c37 6e51 99bf f1dd 60be
000001c0: edac 5f3e 7cd9 8236 3bb8 91bd b948 3136
000001d0: f4cc 5536 5d6a aeb6 5c62 1136 b3f5 4fb6
000001e0: c8c9 d03e 9424 48b6 d1a3 263f 3b41 4b3e
000001f0: 80cd a2b5 e03d c9bd bd7a 57b4 693b b036
00000200: ed36 e936 8b0a 1936 b9e4 8bbe 2cd9 073a
00000210: 305d 6134 4f3f 0cb7 53af d4b5 2173 d036
00000220: 6e73 90b5 1fa4 78be d070 adb5 cf24 fcbe
00000230: 6ccb f837 6736 233e e02f 73be c7d2 d736
00000240: 618c 333f 4f59 b5b5 561c e036 f09b a4be
00000250: 2b9d 5536 570c da3f 0238 ab3f 117a 1db7
00000260: 6706 0dbf cc5d deb5 484c f337 d87c 7335
00000270: 4d0c 653e 95fc ccb6 57fe f53e 286c 8a36
00000280: 3de3 03bf 6de2 5135 d06a 273f 0101 0f3c
00000290: 0c9f c635 3d13 00b6 3ff4 e034 8de4 1a34
000002a0: 960d 8f3e b2c6 b5b6 ba13 bb35 72dc 8dbd
000002b0: 5535 58bf 2f90 65b5 b1f4 3536 70b9 c936
000002c0: 1fc6 1340 82f0 17b7 bd60 d936 4027 2f36
000002d0: 1951 90b7 2171 743e 6a2b 84b6 cb00 9fb6
000002e0: 80aa cfb5 f326 58bf f9dc 3036 803a 2a35
000002f0: 4ba4 de3d 2049 bcb6 9edf e6b6 7524 5236
00000300: 618f 913e ae1a 6a3d 8612 873b 4c81 f336
00000310: c5c1 e3bd 0f28 3438 c133 3038 005b ceb6
00000320: 4949 873d fa52 efbe baca 84b5 278e 2440
00000330: 47ee 82bd 4fc0 0f37 ddcb 8239 5126 fcbd
00000340: 7373 bdb5 d5a7 d2be 650f bd36 546c 2eb6
00000350: 3828 e33c 7359 c535 949d 6f35 048b c336
00000360: 6923 b53a 7dc5 65b5 a971 0736 84ce e2bd
00000370: f0ff 3dbd eb77 65bf bcea 283f 62dd 9fbe
00000380: e0bb dabf 3930 89b4 7100 12bf 324a c6b5
00000390: 7734 38b6 458e b436 ae43 0eb6 be7e dfbf
000003a0: 3fb6 7cb6 489b 47bf 8ad8 3840 ca32 8038
000003b0: 5bd0 c8b5 635d eb36 be02 883c 4f78 313d
000003c0: 71e5 84be e0ab 1836 c55a b1bf c6cc 7036
000003d0: 1110 a036 6f25 e7b6 5bfc 5935 b013 55b5
000003e0: 5417 73be 3cb4 7336 1b13 823f d354 ef3e
000003f0: 508a b035 c87a 383f 886c 89b5 fc89 91b6
1.2611309e-06 -2.8675204e-06 0.3662742 -0.0010609579 1.5591065e-06 9.287565e-06 1.364098e-06 -1.9914096e-06
1.5916193e-06 0.40639699 3.1212371e-06 0.17327397 -1.4487927e-05 0.6346662 -0.54885453 -4.1977687e-06
-0.14484684 5.0557646e-06 5.8828687e-06 -0.2537065 -5.037796e-07 -0.24914949 -0.2443193 -9.627546e-07
0.34783816 -8.459622e-06 -3.2377193e-05 3.316419e-06 -0.22686364 3.1436962e-06 1.0072247 -3.4080867e-06
-0.16292979 -8.172311e-06 -0.4754276 -0.70776194 7.3711485e-06 5.9062827e-06 4.0541872e-06 -2.1075423e-06
0.46930802 1.522477e-07 -9.913107e-07 0.606814 -0.3851137 1.8435767e-07 -5.2646606e-06 -6.600139e-06
0.04000048 -2.0208938e-06 -1.760756e-05 -3.0407577e-06 8.357542e-06 -0.52122617 2.636555e-06 -3.9295214e-06
-3.97555e-06 -0.19837058 2.5516651e-06 -4.8308984e-06 -0.6325412 4.2173497e-07 -1.4081556e-07 -7.947231e-06
-2.544965 -0.31806397 -0.51606447 1.5793107e-06 -0.004658201 -3.629269e-05 -4.2206782e-05 4.8945244e-06
-0.31947014 0.28990316 -8.998541e-06 0.023966 0.85943097 -3.696723e-06 0.00025239002 -1.2318276
-4.249071e-06 -0.41773528 -6.4430327e-07 -4.0191722e-07 0.9533218 -2.40166e-06 -3.2626979e-06 -1.3388063e-05
-0.001305615 8.98004e-07 -1.3722813e-06 0.6291499 0.9045545 0.5909683 -0.20086037 0.7000498
1.5614549 -1.2285852e-06 0.6444014 -3.0240717e-06 6.6707894e-06 -4.6447435e-06 9.115988e-06 -1.2305746
-9.297843e-06 -0.22609894 1.0725158 -5.1932184e-05 -7.0860438e-06 8.346155e-06 -1.1977975 -0.21959664
0.2184331 3.8996204e-06 -0.07115217 2.6417385e-06 3.1858772e-06 -5.1979864e-06 2.1663936e-06 -3.098842e-06
0.40778947 -2.9823614e-06 0.65093714 0.19849102 -1.2129749e-06 -0.09826255 -2.0068087e-07 5.252125e-06
6.9503353e-06 2.2804913e-06 -0.2732294 0.00051822024 2.098866e-07 -8.35939e-06 -1.5846257e-06 6.212286e-06
-1.076243e-06 -0.24281357 -1.2922337e-06 -0.49246833 2.965863e-05 0.15938722 -0.23748732 6.432037e-06
0.70136076 -1.3511543e-06 6.679019e-06 -0.3215022 3.1830957e-06 1.7035016 1.3376467 -9.38635e-06
-0.55087894 -1.6567587e-06 2.9003379e-05 9.0706226e-07 0.22367974 -6.109078e-06 0.48045608 4.1253115e-06
-0.51518613 7.818806e-07 0.6539736 0.008728267 1.4798438e-06 -1.9084684e-06 4.1900964e-07 1.4425514e-07
0.27940053 -5.4173515e-06 1.3938327e-06 -0.06926812 -0.8445638 -8.551896e-07 2.711353e-06 6.0118546e-06
2.3089674 -9.056299e-06 6.478366e-06 2.6099879e-06 -1.7203902e-05 0.2387128 -3.9389606e-06 -4.7386616e-06
-1.5472324e-06 -0.8443443 2.6354667e-06 6.3415064e-07 0.1087118 -5.6113495e-06 -6.8805666e-06 3.131366e-06
0.28429702 0.05715435 0.004122081 7.2570165e-06 -0.11120943 4.295265e-05 4.200987e-05 -6.149872e-06
0.06605775 -0.46742994 -9.893768e-07 2.5711763 -0.06393104 8.5682395e-06 0.00024947422 -0.12311996
-1.4115197e-06 -0.4114367 5.634431e-06 -2.5991076e-06 0.027729139 1.4703677e-06 8.9263744e-07 5.8276364e-06
0.0013819757 -8.559653e-07 2.0182727e-06 -0.11074546 -0.04638666 -0.89636105 0.65983176 -0.3122359
-1.7088585 -2.5553325e-07 -0.57031924 -1.4773743e-06 -2.7448675e-06 5.3809804e-06 -2.1199044e-06 -1.7460554
-3.7657007e-06 -0.77971315 2.8882165 6.112976e-05 -1.4961801e-06 7.0144174e-06 0.01660287 0.043327626
-0.259563 2.274981e-06 -1.3855826 3.588198e-06 4.770242e-06 -6.8886943e-06 8.1206025e-07 -7.937733e-07
-0.23739368 3.6314732e-06 1.016208 0.46744403 1.3153276e-06 0.7206235 -1.0238882e-06 -4.3374002e-06

model.6.bias f4 [3]
00000000: 4e03 1cbd 1a43 2f3d 7032 e0bc
-0.03808909 0.042788602 -0.0273678
