models/best_model.pth (torch, 137956 bytes, 8 tensors)

model.0.weight f4 [128, 1]
-0.4567632 0.15737812 0.75545734 0.7695099 -0.10142451 -0.48010966 0.47839946 -0.07963056
0.5727321 0.75559914 0.2436832 -0.31728244 0.09786101 -0.32624024 -0.6957393 -0.20461714
0.059814125 -0.41818908 -0.013078468 -0.56668675 -0.6410562 -0.6310268 -1.1193767 -0.40645364
-0.51463413 -0.46688905 -0.09572657 -0.03003203 0.4831925 -0.39915562 0.33095598 -0.023568515
0.13460867 -0.12952094 -0.49427056 0.47939536 0.9507531 -0.46916083 -0.06884851 -0.51428926
0.56925803 0.74242 0.14317483 0.6434631 -0.37546867 -0.2510756 1.091979 -0.67321694
0.3492893 -0.68746907 0.46216366 -0.07504532 -0.3148721 -0.017084861 -0.5614172 -0.2701496
0.076883726 0.5929519 -0.14616965 -0.3934393 0.20289691 -0.048142586 0.081142895 0.23156346
0.016339477 -0.6343856 0.266675 0.89931774 0.34927717 -0.35041475 -0.50069433 0.20326339
0.176705 -0.23795398 0.18731143 0.5747026 0.6863722 -0.106903896 0.70203054 -0.15320855
0.03193429 -0.29851434 -0.10659122 -0.8245778 -0.43366382 -0.31079108 0.49337825 -0.003875074
0.15921465 0.29646185 -0.8594999 -0.46079496 -0.6585517 -0.10568304 -0.6758993 -0.30762857
0.14630541 0.25973153 0.35082185 0.28809023 -0.6215072 -0.31688428 -0.19899133 -0.34787753
0.08788317 -0.12171344 -0.6271982 -0.15788108 -1.8762711 0.44488797 0.16766168 -0.4139917
0.49538153 0.50972885 0.20697364 -0.4179804 -0.59489864 0.0113734575 -0.45415622 -0.20828743
-0.6430266 0.18376449 -0.6492608 0.46848163 -0.37676847 -0.6473001 0.15567939 0.5268149
00000000: dedc e9be bb27 213e a765 413f 9afe 443f
00000010: a7b7 cfbd efd0 f5be c6f0 f43e 5915 a3bd
00000020: 929e 123f f26e 413f 1788 793e d872 a2be
00000030: 5a6b c83d f608 a7be f91b 32bf 2887 51be
00000040: a8ff 743d e11c d6be 1247 56bc 6212 11bf
00000050: 421c 24bf f98a 21bf bc47 8fbf b11a d0be
00000060: 10bf 03bf 150c efbe 4b0c c4bd bb05 f6bc
00000070: 0265 f73e 205e ccbe 1073 a93e c212 c1bc
00000080: dbd6 093e 23a1 04be 0811 fdbe 4f73 f53e
00000090: 8e64 733f d935 f0be 7300 8dbd 76a8 03bf
000000a0: e5ba 113f 3d0f 3e3f 6c9c 123e ffb9 243f
000000b0: 6e3d c0be fb8c 80be f8c5 8b3f f257 2cbf
000000c0: 0cd6 b23e f9fd 2fbf b7a0 ec3e 5cb1 99bd
000000d0: ea36 a1be 8df5 8bbc 0ab9 0fbf 0c51 8abe
000000e0: 3775 9d3d b2cb 173f 7fad 15be e070 c9be
000000f0: 35c4 4f3e 2931 45bd 3f2e a63d f91e 6d3e
00000100: 5eda 853c 1867 22bf a089 883e b039 663f
00000110: 75d4 b23e 9069 b3be 812d 00bf 4724 503e
00000120: 28f2 343e 35aa 73be 91ce 3f3e b61f 133f
00000130: 17b6 2f3f 6ef0 dabd 46b8 333f b4e2 1cbe
00000140: 88cd 023d dfd6 98be 7f4c dabd 8817 53bf
00000150: 2f09 debe 0220 9fbe 139c fc3e f4f4 7dbb
00000160: 2a09 233e d9c9 973e 2f08 5cbf 51ed ebbe
00000170: d896 28bf 5a70 d8bd bd07 2dbf 7e81 9dbe
00000180: 16d1 153e 88fb 843e ec9e b33e 9080 933e
00000190: 191b 1fbf a83e a2be 62c4 4bbe 011d b2be
000001a0: 17fc b33d e544 f9bd 1090 20bf 94ab 21be
000001b0: a729 f0bf 5bc8 e33e 81af 2b3e b8f6 d3be
000001c0: a6a2 fd3e 977d 023f e6f0 533e 8701 d6be
000001d0: 474b 18bf bd57 3a3c 2a87 e8be 4d49 55be
000001e0: 649d 24bf c22c 3c3e f535 26bf d3dc ef3e
000001f0: cce7 c0be 76b5 25bf 6b6a 1f3e 57dd 063f

model.0.bias f4 [128]
-0.6453355 -0.47183317 -0.0042563896 -0.5617883 -0.4030896 0.35030174 -0.6124518 -0.5346267
-0.4231969 -0.24588098 0.23728146 0.31496078 -0.37331286 -0.28071946 0.5339303 0.1993642
-0.51715875 0.18930514 0.025992714 0.2590294 0.4689027 0.48419783 0.41463056 0.15069441
0.5123623 0.17312396 -0.18392913 -0.0049361372 -0.058268815 -0.03652126 -0.6104859 0.007916241
-0.4543574 0.12634899 0.22511765 -0.09509358 -0.113687456 0.3427864 0.067421004 0.42681682
-0.345364 -0.24115117 -0.5982003 0.19396324 0.3733444 -0.45575872 -0.0038905453 0.3067616
-0.0054747923 0.21584907 -0.5458269 -0.5211861 -0.213495 -0.5050291 0.25855115 -0.37668213
-0.36130735 0.20503429 -0.106319875 0.32673624 0.13015406 -0.42723653 0.12785289 -0.003583018
-0.018912928 -0.17906216 -0.648392 -0.29220775 0.41285986 -0.566424 0.3655923 -0.6332075
-0.22027858 -0.27417845 -0.34392825 -0.0047125635 -0.5001806 0.01745246 -0.006400162 -0.4909562
-0.010147554 0.35447985 -0.3345201 0.6036583 -0.26725802 -0.47820812 0.13507181 -0.40000153
0.26208836 0.093153104 0.6287522 0.21125622 0.56773645 0.21770298 0.6734662 0.22404277
-0.18034282 -0.39576772 -0.24071287 0.38598153 -0.64831406 0.31464425 0.14445192 -0.31336027
0.2926306 -0.42220342 0.62483555 -0.11054843 0.11836208 -0.44791088 0.060948897 0.4110948
0.060628925 -0.06160723 -0.0039057971 -0.39700666 0.5924264 -0.17467481 0.33149555 -0.20255156
0.29481786 0.2128801 0.29923862 -0.58513385 -0.2836543 0.4970716 -0.381377 -0.3228072
00000000: b534 25bf 1e94 f1be 2f79 8bbb 5cd1 0fbf
00000010: c361 cebe c05a b33e a4c9 1cbf 4cdd 08bf
00000020: 44ad d8be 39c8 7bbe e9f9 723e 8a42 a13e
00000030: dd22 bfbe 76ba 8fbe a8af 083f 2126 4c3e
00000040: 8464 04bf 35d9 413e acee d43c 809f 843e
00000050: 0414 f03e c7e8 f73e 754a d43e a34f 1a3e
00000060: 2d2a 033f 6847 313e eb57 3cbe 52bf a1bb
00000070: 48ab 6ebd 5197 15bd ce48 1cbf 1fb3 013c
00000080: 88a1 e8be a161 013e 3e85 663e 6cc0 c2bd
00000090: f8d4 e8bd b381 af3e 0614 8a3d bc87 da3e
000000a0: 8dd3 b0be 55f0 76be a823 19bf 4d9e 463e
000000b0: ff26 bf3e 3559 e9be 85f8 7ebb db0f 9d3e
000000c0: e365 b3bb 8a07 5d3e 50bb 0bbf 746c 05bf
000000d0: 6f9e 5abe 9649 01bf d160 843e 7bdc c0be
000000e0: 47fd b8be 82f4 513e 3cbe d9bd f949 a73e
000000f0: 1b47 053e bfbe dabe deeb 023e 11d1 6abb
00000100: 49ef 9abc 125c 37be 05fd 25bf 419c 95be
00000110: 5e62 d33e 2a01 11bf ea2e bb3e e319 22bf
00000120: b590 61be 1e61 8cbe 5d17 b0be d96b 9abb
00000130: d60b 00bf 76f8 8e3c 73b8 d1bb 9c5e fbbe
00000140: ed41 26bc 627e b53e 3846 abbe 5a89 1a3f
00000150: 0bd6 88be b2d7 f4be 4450 0a3e 00cd ccbe
00000160: 7230 863e 0ec7 be3d e7f5 203f 8d53 583e
00000170: 2d57 113f 88ed 5e3e 4868 2c3f 786b 653e
00000180: caab 38be 11a2 cabe 6f7d 76be 5f9f c53e
00000190: e9f7 25bf 0d19 a13e 34eb 133e c270 a0be
000001a0: aed3 953e 0c2b d8be 39f5 1f3f 3767 e2bd
000001b0: d167 f23d 9354 e5be 8da5 793d 057b d23e
000001c0: 0956 783d dd57 7cbd 67f8 7fbb 7544 cbbe
000001d0: 42a9 173f f4dd 32be c9b9 a93e ad69 4fbe
000001e0: 5ef2 963e 3efd 593e ce35 993e 55cb 15bf
000001f0: 233b 91be 2b80 fe3e d943 c3be fc46 a5be

model.2.weight f4 [128, 128]
-0.02880343 0.0005412322 -0.045378275 0.048383355 -0.003913333 -0.011601361 -0.05683627 0.023340505
0.033574037 -0.052420225 0.012738535 -0.04348579 -0.027903916 -0.03388107 -0.028098 0.021304233
-0.041853543 0.032784052 0.003097134 -0.02236404 -0.031802785 -0.04130031 -0.054168016 0.04616898
0.03951497 -0.013525499 0.03067738 -0.03243634 0.00013914169 0.049052462 0.016766535 0.0549894
0.02372659 -0.013606185 0.022641316 -0.020713268 0.046105277 -0.01722475 0.04158084 -0.0047304463
-0.023772238 0.054126 -0.050289363 -0.05410096 0.048448782 -0.022153975 0.009535306 -0.02064779
-0.04122553 0.026656272 -0.04548419 -0.031055678 0.008102358 0.031203164 -0.053481698 0.050497495
0.03962239 -0.05438422 -0.009236424 0.045575906 0.026840968 -0.004069868 -0.036660507 0.032768372
0.046169166 0.049584143 0.00937727 0.056159776 -0.028212931 -0.04486918 -0.0042213365 -0.028832614
0.010626869 0.015468549 -0.04865135 -0.025447816 -0.022026505 -0.013809046 0.0532313 -0.011024072
0.053339988 0.054652236 -0.053679213 -0.028657192 0.039809573 0.025780614 -0.05349884 -0.021223506
0.008855635 -0.03889962 -0.022876147 -0.04916971 0.043733813 0.045399092 -0.0040139006 -0.006271464
0.03953885 0.042018272 -0.0036745577 -0.029783435 0.011909058 -0.039905794 0.025750272 0.007372136
0.009754067 0.044169866 -0.007658282 -0.036063388 -0.033487737 0.048875052 -0.03115729 -0.0042609284
-0.055174608 -0.0118874265 0.055827934 -0.0550374 0.0018279094 0.012414795 0.006092702 0.02369557
-0.0142937405 -0.024947613 -0.02257056 0.035373062 -0.016001057 0.05458136 -0.041295618 -0.0026617562
0.020135349 0.019258523 -0.16569543 -0.19570334 -0.044035316 -0.20844588 -0.037011936 -0.03640063
-0.09830646 -0.14931506 -0.12031388 -0.18797153 -0.016087862 0.011060398 -0.14252241 -0.15828346
-0.055370484 -0.12536724 -0.103035845 -0.17830689 -0.10497302 -0.17297524 -0.18318368 -0.19516088
-0.1821867 -0.18358143 -0.05623148 -0.014486164 -0.16858211 -0.03359534 0.04202948 -0.19528253
0.026441216 -0.18897024 -0.15031032 -0.084103584 -0.13022599 -0.14592801 -0.14840554 -0.101786464
-0.10711407 -0.10856619 0.055861842 -0.15476127 -0.12639207 -0.005529715 -0.085017405 -0.1191002
-0.11797318 -0.19644304 0.009165365 -0.04067348 -0.016670339 0.037309002 -0.11592087 0.048063718
0.02655214 -0.15201737 0.047126435 -0.18961109 -0.17298706 -0.0030097384 -0.093758956 -0.113353126
-0.1685402 0.001147834 -0.04523872 -0.0885096 -0.11712886 -0.0008423005 -0.18054043 -0.021430751
-0.037716806 -0.05733943 0.052319 -0.16243955 -0.08383054 -0.12976584 -0.100286715 0.051989127
-0.14611818 -0.09615474 -0.0143998 -0.115454264 -0.017222267 0.05376252 -0.17524987 -0.021642152
-0.19263925 -0.15063198 -0.19922902 -0.15377824 -0.19806448 -0.17400002 -0.143606 -0.12481586
0.0014160951 0.03936722 -0.19167183 -0.08444146 0.005605477 -0.19356382 -0.11199692 -0.040300284
-0.147413 0.04896257 -0.10077972 -0.032190047 -0.1556429 0.015837606 -0.115259275 -0.14524706
-0.15261605 -0.14949434 -0.12758158 0.0039239405 -0.1953957 -0.044637274 -0.14115202 0.02413771
-0.17469186 -0.17409272 -0.10471715 0.011127685 0.05524966 -0.13631816 0.04175785 -0.10833553
00000000: 2cf5 ebbc 7ae1 0d3a 92de 39bd a02d 463d
00000010: 6b3b 80bb a313 3ebc 26cd 68bd 9634 bf3c
00000020: ee84 093d 97b6 56bd 4ab5 503c 281e 32bd
00000030: c196 e4bc e0c6 0abd c72d e6bc 3786 ae3c
00000040: 9f6e 2bbd 9248 063d 49f9 4a3b cb34 b7bc
00000050: a343 02bd 842a 29bd 48df 5dbd af1b 3d3d
00000060: 73da 213d 0e9a 5dbc 214f fb3c f8db 04bd
00000070: 90e6 1139 3ceb 483d f959 893c 913c 613d
00000080: 445e c23c 7aec 5ebc 487a b93c dfae a9bc
00000090: e3d8 3c3d eb1a 8dbc ac50 2a3d dc01 9bbb
000000a0: ffbd c2bc 39b3 5d3d 38fc 4dbd f898 5dbd
000000b0: 3b72 463d 417c b5bc f939 1c3c 8e25 a9bc
000000c0: 1adc 28bd 415e da3c a14d 3abd 7a68 febc
000000d0: c1bf 043c c79d ff3c a00f 5bbd 76d6 4e3d
000000e0: 164b 223d fdc1 5ebd 5f54 17bc cdad 3a3d
000000f0: 97e1 db3c 875c 85bb 5429 16bd 2138 063d
00000100: e11b 3d3d be18 4b3d 1fa3 193c cb07 663d
00000110: ce1e e7bc bfc8 37bd 2353 8abb 6032 ecbc
00000120: 521c 2e3c cc6f 7d3c a346 47bd f077 d0bc
00000130: ee70 b4bc 563f 62bc 1009 5a3d 4f9e 34bc
00000140: 087b 5a3d 06db 5f3d bcde 5bbd 7dc2 eabc
00000150: 5d0f 233d de31 d33c 9a21 5bbd ebdc adbc
00000160: 3a17 113c 3555 1fbd c266 bbbc 2e66 49bd
00000170: 3a22 333d 66f4 393d 0a87 83bb da80 cdbb
00000180: 7df3 213d 5a1b 2c3d d9d0 70bb 64fc f3bc
00000190: 361e 433c 4274 23bd 3cf2 d23c f691 f13b
000001a0: 86cf 1f3c 76eb 343d 53f2 fabb 34b7 13bd
000001b0: 702a 09bd 3531 483d 933d ffbc 429f 8bbb
000001c0: c5fe 61bd 7bc3 42bc d5ab 643d e66e 61bd
000001d0: 7696 ef3a 6d67 4b3c 4aa5 c73b 361d c23c
000001e0: 4b30 6abc f05e ccbc e5e5 b8bc 58e3 103d
000001f0: a614 83bc b490 5f3d 9825 29bd dc70 2ebb
00000200: e3f2 a43c 0dc4 9d3c 10ac 29be 7566 48be
00000210: 605e 34bd d672 55be d499 17bd d418 15bd
00000220: e654 c9bd 0ce6 18be 2067 f6bd 9c7b 40be
00000230: b1ca 83bc ac36 353c 65f1 11be 0f15 22be
00000240: 29cc 62bd 4560 00be 7504 d3bd 1596 36be
00000250: 18fc d6bd 6c20 31be 8194 3bbe 41d8 47be
00000260: 268f 3abe c5fc 3bbe fb52 66bd 6057 6dbc
00000270: caa0 2cbe 449b 09bd 1b27 2c3d 25f8 47be
00000280: 409b d83c 6a81 41be f3ea 19be 803e acbd
00000290: f659 05be 276e 15be 9ff7 17be 6c75 d0bd
000002a0: 9f5e dbbd f357 debd 63cf 643d bd79 1ebe
000002b0: ec6c 01be 9d32 b5bb 9b1d aebd ceea f3bd
000002c0: ec9b f1bd 5d28 49be 542a 163c 3c99 26bd
000002d0: 3c90 88bc 53d1 183d ec67 edbd 76de 443d
000002e0: e083 d93c 71aa 1bbe a607 413d 6929 42be
000002f0: 8523 31be 083f 45bb b204 c0bd af25 e8bd
00000300: cd95 2cbe eb72 963a 3c4c 39bd 8544 b5bd
00000310: 41e1 efbd d4cd 5cba 97df 38be 8b8f afbc
00000320: f07c 1abd c0dc 6abd 734c 563d 8e56 26be
00000330: 59af abbd 56e1 04be 1f63 cdbd 8df2 543d
00000340: 01a0 15be c7ec c4bd 24ed 6bbc 4973 ecbd
00000350: b615 8dbc 1736 5c3d b474 33be e24a b1bc
00000360: 3943 45be 453f 1abe b102 4cbe 0b78 1dbe
00000370: 6ad1 4abe 102d 32be 740d 13be 759f ffbd
00000380: 449c b93a 863f 213d 9f45 44be a5ef acbd
00000390: 26ae b73b 9835 46be a45e e5bd e911 25bd
000003a0: 6ff3 16be fa8c 483d 9965 cebd b6d9 03bd
000003b0: da60 1fbe debd 813c 0e0d ecbd a5bb 14be
000003c0: 6247 1cbe 0b15 19be bfa4 02be 6694 803b
000003d0: cf15 48be 93d5 36bd 288a 10be 72bc c53c
000003e0: 6ce2 32be 5d45 32be f275 d6bd e550 363c
000003f0: 784d 623d fd96 0bbe 480a 2b3d 05df ddbd

model.2.bias f4 [128]
-0.0005720711 -0.17800681 -0.0040087327 -0.048977856 0.0051260157 0.044056855 -0.08386202 0.1311164
0.00051512884 -0.051409654 -0.08261049 -0.037015785 -0.014138813 -0.023257576 -0.090168886 -0.018454205
0.11917687 -0.04885062 -0.006004927 -0.028868683 -0.015278622 0.0013872766 0.03896861 -0.018698458
0.08552774 -0.024292197 -0.12288109 -0.042839635 -0.0056126243 -0.015471353 -0.04021291 0.12263071
-0.009876716 -0.033947013 -0.024407975 -0.1572885 0.04364852 -0.10801174 -0.2641947 -0.08240915
0.15036775 -0.02817226 0.107878536 -0.25911817 -0.052755278 0.18197703 -0.034541477 0.050380524
-0.014918379 -0.12093136 -0.039234906 -0.05581228 -0.045797534 -0.013469386 -0.000854308 -0.0017646996
-0.0711525 -0.10266029 -0.053687695 -0.055373833 -0.04601519 -0.0105047235 -0.014555653 0.013836343
-0.06719909 0.01900205 -0.24201824 -0.035075538 0.024828661 0.048397735 -0.069843255 -0.00034821295
0.017024528 -0.044969406 0.07189325 -0.00785282 -0.25523335 0.104610436 0.17568807 -0.017869428
-0.107554376 0.0009118243 0.0455754 0.009413402 0.0056536156 -0.0028731513 0.20523907 0.04469694
-0.057306115 -0.0032362482 -0.019147098 -0.028712712 -0.023384944 -0.038182706 -0.15977712 -0.056465138
-0.016174745 -0.14185202 0.04011121 0.0061687166 -0.0763588 -0.04950809 -0.058168806 -0.007990887
0.05976926 0.009043947 -0.014358372 -0.16506055 0.0125659285 -0.014015599 -0.041273374 0.0024845002
-0.0301988 -0.069166705 0.036599882 -0.028141817 -0.18448596 -0.0833048 -0.048938252 -0.061768934
-0.20531379 0.018915864 -0.02336966 -0.03852846 -0.05739415 -0.01820372 -0.21670908 -0.010846551
00000000: 0bf7 15ba 6b47 36be b05b 83bb 019d 48bd
00000010: 23f8 a73b f674 343d dabf abbd 6143 063e
00000020: b609 073a ee92 52bd b02f a9bd dd9d 17bd
00000030: 7ba6 67bc ac86 bebc 77aa b8bd 462d 97bc
00000040: 0113 f43d 9617 48bd fbc4 c4bb 047e ecbc
00000050: 2f53 7abc 47d5 b53a 8d9d 1f3d 822d 99bc
00000060: 2b29 af3d 6e00 c7bc 15a9 fbbd 9d78 2fbd
00000070: 1bea b7bb 8f7b 7dbc 4bb6 24bd cf25 fb3d
00000080: f3d1 21bc 060c 0bbd 3cf3 c7bc 3d10 21be
00000090: cac8 323d 4235 ddbd 8744 87be 21c6 a8bd
000000a0: 01fa 193e 83c9 e6bc 6cef dc3d 23ab 84be
000000b0: eb15 58bd 3058 3a3e 5d7b 0dbd cf5b 4e3d
000000c0: 376c 74bc dcaa f7bd c8b4 20bd 6b9b 64bd
000000d0: 3296 3bbd b3ae 5cbc a4f3 5fba 7e4d e7ba
000000e0: 67b8 91bd 8f3f d2bd a1e7 5bbd accf 62bd
000000f0: 6d7a 3cbd 011c 2cbc d57a 6ebc d4b1 623c
00000100: ad9f 89bd 30aa 9b3c a1d3 77be 5eab 0fbd
00000110: 7a65 cb3c b43c 463d fb09 8fbd 5a90 b6b9
00000120: 0677 8b3c d731 38bd c53c 933d 1da9 00bc
00000130: f2ad 82be ff3d d63d 93e7 333e e862 92bc
00000140: 7845 dcbd 7e07 6f3a 45ad 3a3d ab3a 1a3c
00000150: f741 b93b 7b4b 3cbb 312a 523e 2314 373d
00000160: d1b9 6abd 3c17 54bb 60da 9cbc ec36 ebbc
00000170: c891 bfbc 7865 1cbd 9d9c 23be fd47 67bd
00000180: e680 84bc a841 11be a74b 243d f222 ca3b
00000190: 0162 9cbd ffc8 4abd 6a42 6ebd 36ec 02bc
000001a0: 9dd0 743d 102d 143c 613f 6bbc a205 29be
000001b0: 53e1 4d3c afa1 65bc 450e 29bd ffd2 223b
000001c0: 7963 f7bc 46a7 8dbd c2e9 153d ab89 e6bc
000001d0: e3e9 3cbe b59b aabd 7a73 48bd 6c01 7dbd
000001e0: c73d 52be 71f5 9a3c bb71 bfbc 05d0 1dbd
000001f0: 2116 6bbd f81f 95bc fce8 5dbe bbb5 31bc

model.4.weight f4 [128, 128]
-0.01208211 0.09200324 0.007792724 -0.009391682 0.01865876 0.048564605 0.008946107 0.21551152
0.02742494 0.04259413 0.03597308 0.03836748 -0.035564274 0.007135128 -0.027302474 0.0058959248
0.066934705 -0.040286027 -0.049335737 0.28263015 -0.029596189 0.14285322 0.16945383 0.03192041
0.20712265 -0.05286557 0.041887645 -0.0025325934 0.056848414 -0.041092392 -0.0013393229 0.14605777
-0.045187913 0.04286872 -0.54055136 -0.010523378 -0.046284437 -0.16088796 0.18728696 0.03537283
0.12739274 0.034182508 0.09599804 -0.3012806 -0.05045277 0.14169441 -0.031686448 0.03651374
-0.031662244 -0.00067923195 0.0159698 -0.045554362 -0.010543891 -0.040924177 0.03629149 0.01757362
0.33784738 0.02780808 0.007128354 -0.038132332 0.07665299 0.04329665 0.0147885 -0.055724215
-0.054767683 -0.009410688 -0.026636407 -0.6466677 0.0273598 0.25318336 -0.024576603 0.011532145
0.043785907 -0.01871096 0.1567795 0.10123473 -0.25271857 0.020162456 0.16286765 0.011280982
-0.013347334 0.028419372 -0.030374184 0.027850265 -0.3080205 0.027570212 0.20228247 0.028414803
0.04067282 -0.0053317267 0.36105058 0.04610964 -0.04799093 -0.028038053 -0.18728918 0.05845134
-0.0038118728 0.15819426 -0.02100866 0.08968991 -0.03784621 -0.03668568 -0.26912847 -0.01610977
0.21022159 -0.009894607 -0.049747832 -0.17956388 0.03224972 -0.019196428 0.004393063 -0.03943227
-0.02889835 0.011647303 0.015164329 -0.03606237 -0.03971615 0.03969492 0.0004376196 -0.05176267
0.003694171 -0.021236595 -0.04650757 -0.03749801 0.08892528 -0.008503731 -0.10428551 -0.23179741
0.051779285 0.0017946592 0.035708543 -0.00031426313 0.039576657 -0.027171345 0.007851558 -0.0367009
-0.026463065 -0.030600432 0.047530103 -0.0059009125 -0.031592976 0.003781925 -0.035006866 0.034913834
0.040873796 0.055326324 0.023941409 0.0054813377 -0.040576756 -0.02262161 -0.026848016 -0.03431525
0.032577064 0.05335562 -0.019995313 0.038165897 -0.025530845 -0.031122744 -0.041444298 0.051379938
0.057339445 0.006114797 0.029594943 -0.02943611 0.04685701 0.023062304 -0.033060852 0.025035776
-0.034071732 -0.05270311 -0.0075321165 -0.019706098 0.017299775 0.008898215 0.050039563 0.00420008
0.046928473 -0.011971676 -0.056179114 -0.050441533 -0.049895674 0.003563691 0.012418449 -0.03421703
-0.01644233 0.013515386 -0.04323115 -0.052210297 0.047673073 -0.03714136 -0.051171046 -0.047148295
0.019233301 -0.056780018 0.054037474 0.054982793 -0.036378052 0.042592745 0.05059945 -0.04516764
0.03976932 -0.014928251 -0.016546164 -0.04455329 0.024061427 -0.05236338 -0.04787011 0.043499023
-0.0045844615 -0.03399066 0.01974385 -0.05153469 0.05256529 -0.028318008 -0.026730977 -0.050211444
-0.038048327 0.027395613 0.012362007 0.0080868155 -0.05034629 -0.031028364 -0.01981443 0.017935047
-0.011730057 -0.015160025 0.03831688 0.055571835 0.03482549 -0.023224026 -0.03357476 0.04668099
-0.0340834 0.048234504 -0.002839593 0.049886428 0.014541276 -0.050593738 -0.049143746 -0.0136507
0.04157371 -0.05052413 -0.006266451 0.03655856 0.01806845 0.040616237 -0.0004465343 0.038481787
0.05158926 0.000816029 -0.017392905 0.05118892 -0.012553556 -0.016434511 0.041949335 0.009803644
00000000: 0bf4 45bc 326c bc3d 1b5a ff3b 92df 19bc
00000010: 41da 983c aeeb 463d b192 123c 0daf 5c3e
00000020: 45aa e03c 2f77 2e3d 8258 133d 3827 1d3d
00000030: d8ab 11bd cbcd e93b 70a9 dfbc 9a32 c13b
00000040: 1015 893d f602 25bd 4514 4abd e6b4 903e
00000050: b573 f2bc 1d48 123e 4e85 2d3e fabe 023d
00000060: f617 543e 9189 58bd 6192 2b3d def9 25bb
00000070: e2d9 683d 7f50 28bd 388c afba 2b90 153e
00000080: f616 39bd 1c97 2f3d 9361 0abf 3f6a 2cbc
00000090: c094 3dbd d0bf 24be 27c8 3f3e 1ae3 103d
000000a0: 3e73 023e f502 0c3d 9f9a c43d 7341 9abe
000000b0: 90a7 4ebd 5718 113e a6c9 01bd 6e8f 153d
000000c0: 45b0 01bd 7c0e 32ba 19d3 823c 3697 3abd
000000d0: 49c0 2cbc 1ca0 27bd 63a6 143d 8df6 8f3c
000000e0: 55fa ac3e c5cd e33c f894 e93b a630 1cbd
000000f0: 3efc 9c3d d457 313d 774b 723c 133f 64bd
00000100: 1454 60bd 492f 1abc 9834 dabc 048c 25bf
00000110: a921 e03c 40a1 813e df54 c9bc 52f1 3c3c
00000120: da58 333d ba47 99bc ce8a 203e 2754 cf3d
00000130: 5464 81be bc2b a53c c7c6 263e ded3 383c
00000140: c7ae 5abc becf e83c 48d3 f8bc 3d26 e43c
00000150: ddb4 9dbe edda e13c 2323 4f3e 29c6 e83c
00000160: 8b98 263d c4b5 aebb 9fdb b83e 76dd 3c3d
00000170: 2392 44bd 0fb0 e5bc bcc8 3fbe ac6a 6f3d
00000180: 9dd0 79bb adfd 213e 5a1a acbc 58af b73d
00000190: a104 1bbd b943 16bd 35cb 89be a3f8 83bc
000001a0: 5444 573e fd1c 22bc 62c4 4bbd 98df 37be
000001b0: 4818 043d d441 9dbc aff3 8f3b bb83 21bd
000001c0: 3cbc ecbc 54d4 3e3c ce73 783c 23b6 13bd
000001d0: 67ad 22bd 2497 223d 4f70 e539 1805 54bd
000001e0: e819 723b 5ef8 adbc b97e 3ebd 8397 19bd
000001f0: 751e b63d 3c53 0bbc a493 d5bd 4d5c 6dbe
00000200: 8416 543d c53a eb3a 1f43 123d afc3 a4b9
00000210: 221b 223d 7196 debc d2a3 003c af53 16bd
00000220: 12c9 d8bc c2ad fabc edae 423d 715c c1bb
00000230: a367 01bd 2cda 773b 5c63 0fbd cf01 0f3d
00000240: 486b 273d db9d 623d c620 c43c cb9c b33b
00000250: d033 26bd f450 b9bc 5ff0 dbbc 268e 0cbd
00000260: 876f 053d 6c8b 5a3d 36cd a3bc d853 1c3d
00000270: 1026 d1bc 20f5 febc 7fc1 29bd c573 523d
00000280: c4dc 6a3d a35e c83b 1871 f23c ff23 f1bc
00000290: 23ed 3f3d 28ed bc3c d16a 07bd d417 cd3c
000002a0: cd8e 0bbd 37df 57bd f9cf f6bb af6e a1bc
000002b0: 42b8 8d3c d2c9 113c 49f6 4c3d d3a0 893b
000002c0: 1238 403d d924 44bc 121c 66bd c89b 4ebd
000002d0: 685f 4cbd d08c 693b c076 4b3c 2827 0cbd
000002e0: 11b2 86bc a36f 5d3c 2513 31bd 77da 55bd
000002f0: d744 433d 8a21 18bd bb98 51bd 921e 41bd
00000300: 288f 9d3c 2a92 68bd 6656 5d3d a335 613d
00000310: 2701 15bd bb75 2e3d 5e41 4f3d b401 39bd
00000320: 28e5 223d 9f95 74bc d28b 87bc 837d 36bd
00000330: 781c c53c fc7a 56bd 7313 44bd 082c 323d
00000340: 4039 96bb ca39 0bbd dbbd a13c 0a16 53bd
00000350: b44e 573d 2bfb e7bc ecfa dabc 84aa 4dbd
00000360: 90d8 1bbd c46c e03c 048a 4a3c 907e 043c
00000370: e937 4ebd 322f febc df51 a2bc 85ec 923c
00000380: 6d2f 40bc c161 78bc 29f2 1c3d 4b9f 633d
00000390: 2ca5 0e3d 5040 bebc b085 09bd 9134 3f3d
000003a0: 099b 0bbd 8b91 453d 7718 3abb b655 4c3d
000003b0: 883e 6e3c 613b 4fbd f44a 49bd 30a7 5fbc
000003c0: 3249 2a3d 64f2 4ebd cd56 cdbb 6ebe 153d
000003d0: 4904 943c 365d 263d d21c eab9 149f 1d3d
000003e0: 434f 533d c7ea 553a 917b 8ebc 79ab 513d
000003f0: 6ead 4dbc aba1 86bc 11d3 2b3d 779f 203c

model.4.bias f4 [128]
0.13789813 -0.011873076 0.073830016 0.088296816 -0.013415305 -0.016664857 0.14689803 0.07507782
0.02137955 -0.058799904 -0.0830791 0.08534881 -0.019342205 0.12992896 -0.18154828 -0.0032825053
0.068627745 -0.027200967 -0.08605639 0.019309096 0.05516241 -0.034761097 0.0013699337 -0.062751606
-0.23636384 -0.02453961 0.1292495 -0.07413214 0.03374479 0.044306133 -0.21994403 -0.06239581
-0.07358452 0.028619792 -0.06518816 0.16452052 -0.02431426 -0.27678823 -0.013521121 -0.12986739
0.023041802 -0.0015372477 0.19044365 0.028040407 -0.20635767 -0.1972595 0.06485317 -0.019565715
-0.07079591 -0.04644754 -0.07491506 -0.0696002 -0.010081944 -0.023418603 -0.008016192 -0.0051834043
-0.031682413 -0.045009397 0.013894079 0.07576956 -0.3889398 0.15688275 -0.061216854 -0.051336292
0.011177114 0.10077505 0.15269625 0.11629369 -0.12650412 -0.03827343 0.048071314 0.10654781
0.010295385 0.1346305 -0.016828952 0.02232474 0.118491605 0.056475136 -0.20614854 0.1239619
0.001072807 -0.079567686 -0.093139835 -0.037231006 0.01867634 0.055888277 0.13934487 0.0153584145
-0.045099102 0.10212859 0.009066434 -0.06287966 0.00024330441 -0.020471128 0.10954024 0.15727618
-0.014924883 -0.13719292 -0.06836871 -0.0735433 -0.0915047 0.061591074 0.12200345 0.10728416
-0.060768083 0.0039739744 -0.020019492 -0.017155955 -0.0010021372 -0.10871007 -0.038848408 -0.02778414
0.11189689 -0.02648673 0.118993774 -0.081848465 -0.004617468 0.1004963 -0.023595177 -0.049259447
0.011517266 -0.013294795 -0.013438043 0.1350044 -0.06419019 -0.17034902 -0.06086629 -0.20095092
00000000: 2b35 0d3e 4a87 42bc 3134 973d f6d4 b43d
00000010: decb 5bbc bd84 88bc 706c 163e 66c2 993d
00000020: 2b24 af3c 2bd8 70bd 6025 aabd 5bcb ae3d
00000030: 8b73 9ebc 190c 053e cbe7 39be 4d1f 57bb
00000040: b48c 8c3d 90d4 debc 553e b0bd 1c2e 9e3c
00000050: fbf1 613d a761 0ebd 598f b33a ea83 80bd
00000060: 5d09 72be 4b07 c9bc fb59 043e 97d2 97bd
00000070: fa37 0a3d 597a 353d 0239 61be c092 7fbd
00000080: 7bb3 96bd 0e74 ea3c 5f81 85bd 1178 283e
00000090: b32e c7bc 30b7 8dbe b187 5dbc f5fb 04be
000000a0: 29c2 bc3c 797d c9ba a903 433e ffb4 e53c
000000b0: 6d4f 53be 65fe 49be bdd1 843d 4748 a0bc
000000c0: 72fd 90bd c73f 3ebd 116d 99bd 8d8a 8ebd
000000d0: bd2e 25bc 5fd8 bfbc 5956 03bc 8cd9 a9bb
000000e0: 6bc5 01bd c65b 38bd fea3 633c 122d 9b3d
000000f0: 1e23 c7be dfa5 203e 86be 7abd 0146 52bd
00000100: 3720 373c 2663 ce3d 685c 1c3e 632b ee3d
00000110: 4c8a 01be 9ac4 1cbd 6de6 443d bd35 da3d
00000120: f9ad 283c 94dc 093e dfdc 89bc 60e2 b63c
00000130: baab f23d 7952 673d 9a18 53be bddf fd3d
00000140: 6e9d 8c3a 62f4 a2bd 19c0 bebd 8a7f 18bd
00000150: 20ff 983c 1beb 643d 6cb0 0e3e dca1 7b3c
00000160: d6b9 38bd cb28 d13d 618b 143c 0dc7 80bd
00000170: 881f 7f39 11b3 a7bc a256 e03d 020d 213e
00000180: 7f87 74bc 4d7c 0cbe e504 8cbd df9d 96bd
00000190: d166 bbbd ec46 7c3d f2dc f93d ccb7 db3d
000001a0: f4e7 78bd 1d38 823b ebff a3bc a58a 8cbc
000001b0: 255a 83ba 63a3 debd 821f 1fbd 919b e3bc
000001c0: 322a e53d b3fa d8bc 02b3 f33d 2ba0 a7bd
000001d0: 214e 97bb 01d1 cd3d ac4a c1bc 46c4 49bd
000001e0: eab2 3c3c 69d2 59bc 3d2b 5cbc 983e 0a3e
000001f0: 2576 83bd f96f 2ebe ee4e 79bd 14c6 4dbe

model.6.weight f4 [3, 128]
0.28554022 -0.03733614 0.102791645 -0.36960694 0.03194571 0.011104137 -0.052053582 -0.015041949
0.030189604 0.027206603 0.01404806 -0.022367358 0.0291806 -0.35842416 -0.20555368 -0.0559762
0.056637004 0.045159247 -0.032771703 0.087134026 -0.10738107 0.00070354907 0.044164512 -0.027776917
-0.19695468 0.018534483 0.14415649 -0.009750437 -0.3006477 -0.009497985 0.12186836 0.031423286
0.040473107 -1.089684 -0.041528277 -0.16930066 0.04764774 -0.19558431 0.028552417 -0.1171033
0.05606547 0.025726156 -0.18094556 0.20931788 -0.08774565 -0.22148205 0.017448075 0.0049608424
-0.024380658 0.025565028 0.014775627 -0.10396956 0.0046245577 0.0039557065 -0.018105919 0.0042289365
-0.029477542 0.06822698 -0.05061899 0.011605718 0.24579988 -0.122131445 0.019983279 0.029677074
0.06450117 0.0909495 -0.101041995 0.07119082 -0.27632123 -0.09547712 -0.07679422 -0.101814084
0.02778893 0.2142303 -0.15567976 -0.046274196 0.058473 0.13450202 -0.09993887 -0.10729137
-0.012463638 -0.022138411 0.013104154 -0.012309712 -0.04255491 0.09684586 0.15000603 0.009173245
-0.018324539 -0.043755624 -0.19731948 0.060506605 0.08204096 -0.0042977673 0.13133377 0.13836105
0.058386248 -0.03986604 -0.017391438 0.18762712 0.050966255 0.004379618 -0.26948383 0.13916822
0.037294693 -0.054959603 -0.53060466 -0.018052941 0.10611458 -0.36455363 -0.023620619 -0.04257178
-0.14441621 0.05214872 -0.085875936 0.043763682 0.08071254 0.3237458 0.006275255 -0.0325584
0.022875048 0.0057361284 0.055295676 -0.068094656 -0.092073336 0.13444413 -0.022121035 -0.06036173
0.2697667 0.006668131 0.55379856 0.19609888 -0.0065172715 -0.04693988 -0.27292827 -0.048672624
-0.011964583 0.06393499 0.090206206 -0.1226694 0.008605362 0.07428019 0.28362092 0.060194544
-0.116536185 -0.037453774 0.013496941 -0.019633677 -0.027960643 0.018108753 -0.0010078509 -0.0101400735
0.44145167 -0.026308144 0.042723373 0.04662697 0.012866543 -0.027273815 -0.058649153 -0.028074458
-0.0043997336 -0.14624459 0.00063986675 0.4775069 0.011262748 -0.23994587 0.018310277 0.22109438
-0.054124814 -0.006393631 -0.078006834 0.060887795 -0.11863889 0.2558203 0.005336827 0.010132619
-0.017078975 0.043263026 -0.03163169 0.11944929 -0.007954432 0.0009847042 -0.0631113 -0.08462929
-0.018194564 0.005875097 -0.28273538 -0.0017735168 1.1104821 -0.28885213 -0.016077915 -0.0001259382
0.04813164 -0.10273971 -0.2655658 -0.07127153 0.6133129 -0.011459584 0.074111074 -0.103195876
0.014119661 0.12647463 -0.26576662 -0.031275637 -0.14926814 0.47861427 0.10830198 -0.19643702
-0.08395334 -0.051000662 0.007898098 0.010241697 -0.013254333 0.031898156 -0.045560677 0.44927764
-0.062028423 -0.14774016 0.18413197 -0.01127892 -0.013992333 -0.03471499 -0.0012244221 -0.14039151
-0.00017549821 0.022947995 -0.02320268 -0.08478128 -0.012004704 0.0903255 0.16508532 -0.04795262
0.020996295 -0.04421378 -0.5855274 -0.030336449 -0.081808686 -0.2928407 -0.019595137 -0.010382458
-0.087051876 0.0062421216 -0.22684395 -0.006600522 0.019807678 0.053526163 0.035580058 -0.030323429
-0.02522524 -0.040673383 0.015194649 -0.12997152 0.015497595 0.20459576 0.009478812 -0.007543143
00000000: 5432 923e c8ed 18bd 6d84 d23d 1f3d bdbe
00000010: 81d9 023d 20ee 353c 2336 55bd 8272 76bc
00000020: 3050 f73c 62e0 de3c d629 663c c03b b7bc
00000030: 270c ef3c 5f83 b7be aa7c 52be 4d47 65bd
00000040: 34fc 673d e7f8 383d 9f3b 06bd 5373 b23d
00000050: 9bea dbbd 616e 383a d9e5 343d 6b8c e3bc
00000060: 7dae 49be a1d5 973c c29d 133e 4cc0 1fbc
00000070: 7fee 99be 709d 1bbc 1e96 f93d b4b5 003d
00000080: 21c7 253d c47a 8bbf 8e19 2abd 275d 2dbe
00000090: 472a 433d 4147 48be c2e6 e93c dbd3 efbd
000000a0: e8a4 653d a9bf d23c cb49 39be 6d57 563e
000000b0: feb3 b3bd 31cc 62be 44ef 8e3c 908e a23b
000000c0: f2b9 c7bc c06d d13c 7915 723c feed d4bd
000000d0: 9a89 973b df9e 813b dd52 94bc e492 8a3b
000000e0: e37a f1bc 96ba 8b3d dc55 4fbd e925 3e3c
000000f0: f7b2 7b3e 0d20 fabd f9b3 a33c 561d f33c
00000100: 3019 843d bb43 ba3d 1bef cebd 7ecc 913d
00000110: fa79 8dbe 8289 c3bd 4a46 9dbd e783 d0bd
00000120: 9ca5 e33c 305f 5b3e 846a 1fbe 038a 3dbd
00000130: 6281 6f3d e6ba 093e c0ac ccbd 94bb dbbd
00000140: 4934 4cbc 9d5b b5bc ceb2 563c adae 49bc
00000150: 0f4e 2ebd 1f57 c63d 2e9b 193e 614b 163c
00000160: 581d 96bc 1939 33bd 1e0e 4abe c6d5 773d
00000170: 1705 a83d 49d4 8cbb 5c7c 063e 85ae 0d3e
00000180: 6b26 6f3d 934a 23bd 7d78 8ebc 5321 403e
00000190: fec1 503d e682 8f3b c9f9 89be 1d82 0e3e
000001a0: 52c2 183d 521d 61bd b5d5 07bf c3e3 93bc
000001b0: 9a52 d93d c6a6 babe 0780 c1bc bf5f 2ebd
000001c0: d8e1 13be e599 553d b9df afbd 8c41 333d
000001d0: 9e4c a53d 02c2 a53e a7a0 cd3b f55b 05bd
000001e0: 7464 bb3c 22f6 bb3b b87d 623d 3675 8bbd
000001f0: f290 bcbd b9ab 093e 2c37 b5bc dd3d 77bd
00000200: dc1e 8a3e 5680 da3b bec5 0d3f 25ce 483e
00000210: d68e d5bb 0844 40bd 41bd 8bbe f25c 47bd
00000220: 1907 44bc 59f0 823d 08be b83d 183a fbbd
00000230: 81fd 0c3c 3620 983d c336 913e 8e8e 763d
00000240: 86aa eebd 2169 19bd 4622 5d3c ced6 a0bc
00000250: b80d e5bc cf58 943c dd19 84ba 8d22 26bc
00000260: f405 e23e 2d84 d7bc b4fe 2e3d ecfb 3e3d
00000270: 31ce 523c 566d dfbc 183a 70bd 68fc e5bc
00000280: a42b 90bb 24c1 15be bbbc 273a c97b f43e
00000290: 6487 383c 5fb4 75be 6fff 953c 9166 623e
000002a0: fbb1 5dbd aa81 d1bb 0cc2 9fbd 7b65 793d
000002b0: f2f8 f2bd e1fa 823e 8de0 ae3b 4903 263c
000002c0: 35e9 8bbc 9234 313d 3b90 01bd d4a1 f43d
000002d0: 4e53 02bc 3111 813a 7f40 81bd 1f52 adbd
000002e0: c40c 95bc e383 c03b b1c2 90be 5975 e8ba
000002f0: 4724 8e3f 6de4 93be d5b5 83bc 470e 04b9
00000300: af25 453d 3269 d2bd 3ef8 87be cff6 91bd
00000310: 1302 1d3f fbc0 3bbc 8cc7 973d 5c58 d3bd
00000320: 2756 673c 9182 013e 9012 88be e21a 00bd
00000330: bfd9 18be ee0c f53e 6ecd dd3d c926 49be
00000340: bbef abbd 12e6 50bd 0667 013c cacc 273c
00000350: b428 59bc a4a7 023d d59d 3abd b807 e63e
00000360: 8411 7ebd 3249 17be 178d 3c3e 38cb 38bc
00000370: 1940 65bc 4e31 0ebd ca7c a0ba cbc2 0fbe
00000380: f105 38b9 6ffd bb3c 8c13 bebc cfa1 adbd
00000390: 61af 44bc 93fc b83d 200c 293e f769 44bd
000003a0: 6c00 ac3c 8219 35bd 20e5 15bf 2584 f8bc
000003b0: 508b a7bd 37ef 95be fb85 a0bc 2f1b 2abc
000003c0: 4148 b2bd b68a cc3b c849 68be 3149 d8bb
000003d0: b643 a23c 403e 5b3d 65bc 113d d768 f8bc
000003e0: 2aa5 cebc 2299 26bd faf2 783c 4117 05be
000003f0: a0e9 7d3c 8d81 513e 054d 1b3c 782c f7bb

model.6.bias f4 [3]
0.12583068 -0.15243328 0.19021796
00000000: c2d9 003e 7817 1cbe 7fc8 423e
